experiment_scripts/logs/experiment_1/checkpoints/model_final.pth (torch_old, 796678 bytes, 9 tensors)

net.net.0.0.weight f4 [256, 3]
0	0xbe49275c	-0.1964392
1	0xbe45f8fb	-0.1933326
2	0xbe8aae47	-0.27086088
3	0xbe804280	-0.25050735
4	0x3d8d77d3	0.0690762
5	0x3e6bf341	0.23042013
6	0x3db60ec3	0.08889534
7	0x3e58af98	0.21160734
8	0xbd99d9b9	-0.075122304
9	0xbd9cf25c	-0.07663414
10	0xbe738e98	-0.23784864
11	0xbdc52401	-0.09626008
12	0xbe4051c6	-0.18781194
13	0x3e09389b	0.134005
14	0xbe6aa627	-0.22914945
15	0xbd163451	-0.036670987
16	0xbeaafbdc	-0.33395278
17	0x3e91f041	0.28503612
18	0x3e1ce2a6	0.15320835
19	0xbe2b5b36	-0.16734013
20	0x3e9e9040	0.3096943
21	0x3d83820e	0.0642129
22	0xbe5c484c	-0.21511954
23	0x3e35137e	0.17683217
24	0x3dc827b3	0.09773197
25	0x3e380849	0.1797191
26	0x3e9b3a62	0.3031798
27	0xbd09c4a4	-0.033634797
28	0x3cb62531	0.022234531
29	0x3e46be25	0.19408472
30	0xbdd7abad	-0.105307914
31	0x3dc79b5a	0.09746428
32	0x3eac2e61	0.33629134
33	0x3e542ed2	0.20720986
34	0x3e871bd6	0.26388425
35	0x3e9e1990	0.30878878
36	0x3e089f66	0.13342056
37	0xbd860c25	-0.06545285
38	0x3e808782	0.25103384
39	0xbe0664a6	-0.13124332
40	0x3df9791e	0.121813044
41	0xbe109efe	-0.1412315
42	0xbe526ab6	-0.2054852
43	0xbe13cc1c	-0.1443333
44	0x3cae2185	0.021256218
45	0x3bef41ad	0.0073015303
46	0x3e96780e	0.2938847
47	0xbea8d4af	-0.32974765
48	0x3dec6676	0.115429804
49	0x3d068454	0.03284104
50	0xbd87633e	-0.06610726
51	0xbbc23fed	-0.0059280307
52	0xbe458346	-0.19288358
53	0x3e909dc4	0.28245366
54	0x3d15945b	0.036518436
55	0xbe9d52f7	-0.3072736
56	0xbe61dd44	-0.22057062
57	0x3e753df0	0.23949409
58	0x3ea4b95b	0.32172665
59	0xbe1cad9c	-0.15300602
60	0xbe582ee8	-0.21111643
61	0x3e67fd11	0.22655131
62	0x3e24738e	0.16059706
63	0xbd28abab	-0.04117934
64	0x3ea69fd9	0.3254383
65	0x3da30e3e	0.07961701
66	0xbd996e03	-0.07491686
67	0x3d9e09dc	0.07716724
68	0xbe268fe8	-0.16265833
69	0x3c905764	0.017619796
70	0x3e5fc450	0.21852231
71	0x3e96876c	0.29400194
72	0x3d8553a6	0.06510095
73	0x3ea19997	0.31562492
74	0x3d2fc7a6	0.04291501
75	0x3dcfbd94	0.10143581
76	0x3c4e17c5	0.012578909
77	0xbe80c894	-0.2515303
78	0x3dcbeeb2	0.09957637
79	0xbdd8c6f6	-0.10584824
80	0x3d8f4fea	0.06997664
81	0xbe535977	-0.20639597
82	0xbe4d6dee	-0.20061466
83	0x3e3c2ec1	0.1837721
84	0x3e89ae64	0.26890862
85	0xbe115f92	-0.14196613
86	0xbe7c9bf3	-0.24668865
87	0xbd443514	-0.04790218
88	0xbe94c659	-0.29057577
89	0xbe80b787	-0.2514002
90	0x3d5baee0	0.05363357
91	0xbe8329ef	-0.2561793
92	0xbd2067ee	-0.039161615
93	0xbe9a60cd	-0.30151978
94	0x3e5a9eb0	0.21349597
95	0x3e2906d6	0.16506514
96	0x3e45dace	0.19321749
97	0x3d58e9f5	0.052957494
98	0xbea81b9d	-0.32833567
99	0x3e662fd5	0.22479184
100	0x3d73ab76	0.05948969
101	0x3d9434d4	0.07236639
102	0x3b725dba	0.0036982135
103	0x3e664a68	0.22489321
104	0x3db2b8c6	0.08726649
105	0x3d6e2c1e	0.058147542
106	0xbe3a76e7	-0.1820942
107	0x3b0e8490	0.0021746494
108	0x3dc49f93	0.09600749
109	0xbda7e246	-0.08197455
110	0xbdb14b7a	-0.08656974
111	0x3d0f59ec	0.034997866
112	0x3ce4404f	0.027862696
113	0x3e03d0f7	0.12872683
114	0x3e928a6e	0.28621238
115	0x3db81d2a	0.089899376
116	0xbe1a0700	-0.15041733
117	0x3e0b99f5	0.13632949
118	0xbd351959	-0.044213627
119	0xbea9e939	-0.33185747
120	0xbe272cdd	-0.16325708
121	0x3e8367a1	0.25665
122	0x3d4992c8	0.049212247
123	0x3debbb33	0.11510315
124	0xba9c7d42	-0.0011939185
125	0xbda3e473	-0.080025576
126	0x3d1003d8	0.035159916
127	0xbda14536	-0.07874529
128	0xbeaf2a5d	-0.34212008
129	0x3e42efcb	0.19036786
130	0xbdb8fb31	-0.09032286
131	0x3ea77724	0.32708085
132	0x3d9893c0	0.07450056
133	0xbdb5b7c5	-0.08872942
134	0x3e8fcc30	0.2808547
135	0x3d193e99	0.037413213
136	0xbe077046	-0.13226423
137	0xbe97778c	-0.29583395
138	0x3eb08529	0.34476593
139	0x3da3f3fd	0.080055214
140	0xbe9a04cc	-0.30081785
141	0x3e913d2e	0.2836699
142	0x3d5c007d	0.053711403
143	0x3c7c1950	0.015386894
144	0xbde7bfaf	-0.113158576
145	0xbdc666fc	-0.096876115
146	0x3e4d3335	0.20039065
147	0x3e988178	0.29786277
148	0xbe6adcd2	-0.22935799
149	0xbd10bfa9	-0.03533903
150	0xbe791a31	-0.24326397
151	0xbe74ab19	-0.23893394
152	0xbe6facb2	-0.23405722
153	0xbd324dc6	-0.0435312
154	0xbc5042b0	-0.012711212
155	0xbe882519	-0.26590803
156	0x3eab8691	0.33501104
157	0xbde802c4	-0.113286525
158	0x3d2bb6a6	0.041922234
159	0x3e10adc4	0.14128786
160	0x3e5f291a	0.21793023
161	0xbdf8e837	-0.121536665
162	0x3ea10b98	0.31454158
163	0x3d7d17aa	0.061790146
164	0x3e45deed	0.1932332
165	0x3d096431	0.033542816
166	0x3e707bf7	0.23484789
167	0xbe5690fe	-0.20953748
168	0xbdd4c1a1	-0.10388494
169	0xbd080344	-0.03320624
170	0x3eaf5abb	0.3424891
171	0x3e98bf98	0.29833674
172	0xbe8a0270	-0.26954985
173	0x3d573b35	0.0525467
174	0xbe3eb774	-0.1862467
175	0xbe3636ea	-0.17794386
176	0xbe1fe7f9	-0.15615834
177	0xbea15f5a	-0.3151806
178	0x3e94644e	0.28982776
179	0x3dbbb814	0.091659695
180	0x3dd066ab	0.10175832
181	0x3c82445c	0.015901737
182	0x3d1cc64c	0.038275048
183	0x3e834977	0.25641987
184	0xbe4de8d5	-0.2010835
185	0x3e9fb705	0.3119432
186	0x3ea5a8b1	0.32355264
187	0xbe73e1a3	-0.23816542
188	0xbea77c55	-0.32712045
189	0x3d77bb0a	0.06048111
190	0x3e2527bb	0.16128437
191	0xbe3b151b	-0.1826977
192	0x3cf44a0f	0.02982047
193	0x3e6923e5	0.22767599
194	0x3ea7ccd5	0.32773462
195	0x3e030b35	0.12797244
196	0x3e3734ee	0.17891285
197	0xbdaf55d9	-0.08561296
198	0xbeb7766f	-0.35832545
199	0xbe9a0297	-0.300801
200	0x3e1e58e2	0.15463594
201	0x3ea16e9a	0.31529695
202	0x3e7dd60d	0.24788685
203	0x3e7ce191	0.24695422
204	0x3d8439ab	0.06456312
205	0xbdf3de19	-0.11907596
206	0xbbadc286	-0.00530273
207	0xbde57c8d	-0.11205397
208	0x3e284311	0.16431834
209	0x3e469e4b	0.19396321
210	0xbe896431	-0.26834252
211	0x3cb0f7dd	0.021602565
212	0x3ea4d1d3	0.32191333
213	0x3da618ff	0.081102364
214	0x3de84cc3	0.11342766
215	0xbe177496	-0.14790568
216	0xbd811b6f	-0.06304061
217	0xbd143be6	-0.036189936
218	0xbeaa0943	-0.3321019
219	0xbde70044	-0.112793475
220	0xbe10caab	-0.14139812
221	0xbb7895dc	-0.003793112
222	0x3da00b5f	0.07814669
223	0xbe172e27	-0.147637
224	0x3e3bc127	0.183354
225	0x3e0a23f6	0.1349028
226	0xbd003464	-0.031299964
227	0xbe1ec4d9	-0.15504779
228	0x3d335eb5	0.04379149
229	0x3e010036	0.12597737
230	0x3e4ae524	0.19813973
231	0xbd1e1615	-0.038595278
232	0xbe1bc467	-0.1521164
233	0xbc2fdb29	-0.010733404
234	0x3d1123e7	0.03543463
235	0xbd8f178e	-0.069869146
236	0x3ce7ec56	0.028310936
237	0x3d25d7e5	0.040489096
238	0x3e5f13bc	0.21784872
239	0xbeacf8e7	-0.33783647
240	0xbe43b3b5	-0.19111522
241	0xbdc0ac4e	-0.094078645
242	0xbe2db868	-0.16964877
243	0xbdf27ede	-0.11840604
244	0x3dd9a44c	0.1062704
245	0xbe39392c	-0.18088216
246	0xbce88aa9	-0.02838643
247	0xbe0dd3d8	-0.13850343
248	0xbbc6bb67	-0.0060648206
249	0x3dabe454	0.083931595
250	0x3e80d669	0.25163582
251	0x3e0727c8	0.13198769
252	0xbdd8e255	-0.105900444
253	0x3e75767b	0.23970978
254	0xbe8824b1	-0.26590493
255	0x3d1a22ff	0.03763103

net.net.0.0.bias f4 [256]
0	0x3ed24bfc	0.41073596
1	0x3ef5dab4	0.4801842
2	0xbef00b64	-0.4688369
3	0x3ee5fd72	0.44919926
4	0x3edc39e5	0.4301292
5	0x3ede35e3	0.43400487
6	0xbe8bcedb	-0.27306256
7	0x3e4a3393	0.19746237
8	0x3eba8821	0.36431983
9	0xbefc4aaf	-0.4927573
10	0xbf00dbde	-0.5033549
11	0xbe4e41ec	-0.20142335
12	0xbe57cd72	-0.21074465
13	0xbeda6e06	-0.42662066
14	0x3e438c9f	0.19096611
15	0xbd58c6d3	-0.05292399
16	0x3dc53511	0.09629262
17	0x3e621070	0.22076583
18	0x3e989944	0.29804432
19	0xbdf6848b	-0.12036999
20	0xbecbc0e2	-0.39795595
21	0x3ee4af08	0.44664788
22	0xbe95fe1b	-0.2929543
23	0x3e9df1a7	0.3084843
24	0xbf1182f4	-0.56840444
25	0xbf07f0a2	-0.5310155
26	0xbed341d0	-0.41261148
27	0x3e85b678	0.26115775
28	0xbeab8f39	-0.33507708
29	0x3ed2f4ce	0.41202396
30	0x3e9872f9	0.29775217
31	0x3ec36b7a	0.38167936
32	0xbeaeea4d	-0.34163132
33	0xbe955fd1	-0.29174665
34	0x3e796368	0.24354327
35	0xbd5e5098	-0.05427608
36	0xbee3b444	-0.4447347
37	0x3e9d8576	0.30765885
38	0x3ec9360f	0.39299056
39	0xbeb233cf	-0.34805152
40	0xbeabf5dd	-0.33586016
41	0xbe8f53d7	-0.27993652
42	0xbe8a5cc4	-0.270239
43	0xbe8a2001	-0.26977542
44	0x3eb5b4eb	0.35489592
45	0xbe7e8d0e	-0.24858496
46	0x3ee91f12	0.45531517
47	0x3eda6591	0.42655614
48	0xbf13e5a9	-0.5777231
49	0x3e2b3825	0.16720636
50	0xbd78c159	-0.060731266
51	0x3ed8e6fe	0.42363733
52	0x3eab11a2	0.3341189
53	0x3deb4f42	0.114897266
54	0xbe4449f2	-0.19168833
55	0x3eb96a67	0.3621399
56	0x3ee82735	0.45342413
57	0x3eb676c6	0.35637492
58	0xbebe4259	-0.37159994
59	0xbeadb4a9	-0.33926895
60	0xbec32497	-0.38113853
61	0x3e293fda	0.16528264
62	0xbe8e635a	-0.27810174
63	0xbe906523	-0.2820216
64	0xbd1ded48	-0.038556367
65	0xbe8e47d3	-0.27789173
66	0x3e598326	0.21241435
67	0x3dfcca1d	0.123432375
68	0x3df6cbd0	0.12050593
69	0xbe7c3ca2	-0.24632505
70	0x3d29f8e0	0.04149711
71	0x3edd1ca8	0.43185925
72	0x3ef4c9bd	0.47810164
73	0xbea40aa7	-0.32039377
74	0x3ef0be86	0.47020358
75	0x3e9afd8f	0.30271575
76	0x3db00d9a	0.08596344
77	0xbc8192e1	-0.015817108
78	0x3e919402	0.28433233
79	0x3e6cff0a	0.23144165
80	0xbf0144ba	-0.50495493
81	0xbef35364	-0.4752456
82	0x3e6ce9df	0.2313609
83	0xbea0bd2b	-0.31394324
84	0xbe175513	-0.14778547
85	0xbe0c5836	-0.13705525
86	0x3d1f242b	0.03885285
87	0x3c9eb81a	0.019374896
88	0x3aa68703	0.0012705032
89	0xbec9c565	-0.39408413
90	0x3eb0fd85	0.3456842
91	0x3f116468	0.5679383
92	0xbf08fd92	-0.5351192
93	0xbe8eca14	-0.27888548
94	0xbe6fbb80	-0.2341137
95	0x3e723a2c	0.23655003
96	0xbf07c7ad	-0.53039056
97	0x3e9a6e44	0.3016225
98	0x3d598326	0.05310359
99	0x3eb01378	0.34389853
100	0xbf08fd95	-0.53511935
101	0xbde4453f	-0.1114602
102	0xbeffa30f	-0.4992909
103	0xbe213c01	-0.15745546
104	0x3e466522	0.19374517
105	0xbe24fec2	-0.16112807
106	0xbea494d8	-0.3214481
107	0xbe3c2d6b	-0.183767
108	0xbf090039	-0.53515965
109	0xbedbec20	-0.42953587
110	0xbe94e081	-0.29077533
111	0x3e5fc22c	0.21851414
112	0xbf002ca1	-0.500681
113	0xbce8a00d	-0.02839663
114	0x3e680e42	0.22661689
115	0xbebb98a2	-0.36639887
116	0xbec0be0e	-0.37645
117	0xbe8b3f57	-0.27196762
118	0x3f029f33	0.5102417
119	0xbe7c8959	-0.24661769
120	0x3d14c447	0.036319997
121	0xba315e71	-0.0006766087
122	0x3d9805b8	0.07422966
123	0x3e85bd28	0.26120877
124	0xbea682db	-0.3252171
125	0xbe92f08c	-0.28699148
126	0x3eb95b1a	0.36202317
127	0x3f08aea5	0.53391486
128	0xbef24a58	-0.47322345
129	0xbea30368	-0.31838536
130	0x3d694889	0.05695394
131	0xbed21706	-0.4103319
132	0x3d874f1b	0.06606885
133	0x3d7df286	0.061998866
134	0x3ef9cc56	0.48788708
135	0x3ef885c6	0.4853956
136	0x3e7ab2bc	0.24482244
137	0xbe04e0c4	-0.12976366
138	0xbf0d4ecb	-0.55198354
139	0x3d4c9b39	0.04995272
140	0xbeba56b5	-0.36394277
141	0x3e477e19	0.19481696
142	0xbe9a400b	-0.30126986
143	0xbec14662	-0.3774901
144	0x3ea453d3	0.32095203
145	0xbe9ea63e	-0.30986208
146	0x3e9fa834	0.31183016
147	0xbebe6c77	-0.37192127
148	0xbe11c3ff	-0.14234923
149	0xbec09895	-0.3761641
150	0x3e80e1dd	0.2517232
151	0xbdb2d21e	-0.08731483
152	0x3ec1c6ae	0.37846893
153	0xbec10cf7	-0.37705204
154	0xbe18c550	-0.14919019
155	0xbe4b24b2	-0.19838217
156	0xbde6799b	-0.11253663
157	0xbf11b4d2	-0.56916535
158	0xbf123c20	-0.57122993
159	0xbdbe4e31	-0.092922576
160	0xbe30c1f0	-0.17261481
161	0x3d284fe7	0.041091826
162	0x3f040ac4	0.5157893
163	0xbed15b0b	-0.40889773
164	0xbeba1541	-0.3634434
165	0x3e9e5c32	0.30929714
166	0xbf0a9891	-0.5413905
167	0x3d1f5865	0.03890266
168	0xbca8d2e4	-0.020608373
169	0x3e5e9564	0.21736676
170	0x3eddd5c5	0.43327156
171	0x3dbf225e	0.09332727
172	0xbec56f4c	-0.38561475
173	0xbefc572b	-0.49285254
174	0xbe851d51	-0.2599893
175	0x3f08c5a2	0.53426564
176	0xbe894e89	-0.2681773
177	0x3eb00fc6	0.34387034
178	0xbe149f65	-0.14513929
179	0xbda4bc0a	-0.08043678
180	0x3f0a300b	0.5397956
181	0x3e44306e	0.191591
182	0x3f0a2782	0.53966534
183	0x3f10c59c	0.5655153
184	0xbd807239	-0.06271786
185	0x3df51cdf	0.11968397
186	0x3ce02664	0.027362056
187	0xbe91f0c4	-0.28504002
188	0x3d407f84	0.04699661
189	0x3e490705	0.19631584
190	0xbe209507	-0.1568185
191	0x3ecb6d7b	0.39731964
192	0xbbcbc141	-0.006218106
193	0xbc2feb28	-0.010737218
194	0xbf12063f	-0.5704078
195	0xbf06fa36	-0.5272554
196	0xbece1c2f	-0.40255877
197	0x3ed91407	0.42398092
198	0xbe806530	-0.250772
199	0x3e2090f2	0.15680292
200	0x3f02e546	0.51131094
201	0xbf068a59	-0.5255485
202	0x3ea2720e	0.31727642
203	0x3e5b202c	0.21398991
204	0xbf01178e	-0.50426567
205	0xbea9d190	-0.33167696
206	0xbcedcd22	-0.029028479
207	0xbe96d190	-0.29456758
208	0xbe984d19	-0.2974632
209	0xbed4c199	-0.41553953
210	0xbe262014	-0.16223174
211	0x3e58f2d3	0.2118638
212	0xbe464338	-0.1936158
213	0xbde8d6f5	-0.11369125
214	0x3ea77d45	0.3271276
215	0xbf059e88	-0.52195024
216	0xbea097d3	-0.31365833
217	0xbd230781	-0.03980208
218	0xbed9e536	-0.42557687
219	0xbd7b7874	-0.06139417
220	0x3e984fde	0.29748434
221	0xbed8a72d	-0.42315045
222	0x3e190d4f	0.14946483
223	0xbf08a5ab	-0.5337779
224	0xbe7c283b	-0.24624722
225	0x3e3ba11b	0.18323176
226	0xbdc6c526	-0.09705572
227	0x3d39d6bd	0.045370806
228	0x3e5e1912	0.21689251
229	0xbe4127d5	-0.18862851
230	0xbebc48d8	-0.36774325
231	0xbe4aaf0d	-0.19793339
232	0x3eb5eb44	0.35531056
233	0xbeeede52	-0.46653992
234	0x3dbc11f3	0.09183111
235	0x3f03676e	0.51329696
236	0xbf041ed2	-0.5160953
237	0xbe80478f	-0.25054595
238	0x3eca213b	0.39478478
239	0x3e942a28	0.28938413
240	0x3eb395af	0.35075137
241	0xbee7a36e	-0.45241874
242	0xbec696d5	-0.3878695
243	0x3e8b47b7	0.27203152
244	0xbe8efc68	-0.27926946
245	0x3e86224b	0.26198038
246	0xbea65d7c	-0.32493198
247	0x3eb66af9	0.3562849
248	0xbec573e8	-0.38564992
249	0xbf10d384	-0.5657275
250	0x3ebc5ee2	0.3679114
251	0x3e49942b	0.19685428
252	0xbde185c3	-0.11011841
253	0x3efcb364	0.49355614
254	0xbf030986	-0.51186407
255	0xbd95133c	-0.07279059

net.net.1.0.weight f4 [256, 256]
0	0xbacd0b3c	-0.0015643607
1	0x3c2bb361	0.010479779
2	0x3c133f1d	0.008987215
3	0x39b7ec19	0.00035080386
4	0x3a72ad73	0.00092574133
5	0xbb92c741	-0.0044793193
6	0xbb27967d	-0.0025571876
7	0x3bc2be6c	0.00594311
8	0x3b5f4343	0.003406719
9	0x3b98ae2e	0.0046594357
10	0xbb1471e9	-0.0022650904
11	0xbaad639d	-0.001322854
12	0xbb80b125	-0.0039273673
13	0x3bf86a16	0.007581006
14	0x3c75c2e1	0.015000076
15	0x3aa0caa3	0.0012267422
16	0xbabd52e3	-0.0014444258
17	0xbb487061	-0.0030584561
18	0xbb541f36	-0.0032367236
19	0x3aba1823	0.0014197867
20	0x3b16fe9d	0.0023039945
21	0xbbee6921	-0.007275716
22	0xbbaaf317	-0.005216967
23	0xbab27747	-0.001361587
24	0x3b5cca60	0.003368996
25	0xbb621b6c	-0.0034501208
26	0x3bc99af5	0.0061525055
27	0x3b45c455	0.0030176837
28	0x3b84b396	0.0040497286
29	0xbb87be15	-0.0041425326
30	0x3b417c45	0.0029523533
31	0x3bd07ac0	0.006362289
32	0xbb91cff3	-0.0044498383
33	0x3b8056ed	0.0039166124
34	0x3b3a11ef	0.0028392037
35	0xba20806f	-0.0006122654
36	0xbc04e8c6	-0.008112138
37	0xbb588806	-0.003304006
38	0x3ac5f2c9	0.0015102263
39	0xbb87aa55	-0.004140178
40	0x39aa521a	0.00032486097
41	0xbc0ec19d	-0.008713153
42	0xbb75b0d1	-0.0037489424
43	0x3baafce3	0.0052181347
44	0x3baf3558	0.0053469352
45	0x3b638d42	0.0034721647
46	0xbadd9d95	-0.0016907925
47	0x3b0f246c	0.0021841777
48	0x3b03c688	0.0020107348
49	0xbac88607	-0.0015298732
50	0x3bb90101	0.0056458716
51	0x3b150385	0.0022737694
52	0x3afcf010	0.0019297618
53	0x3b169c9a	0.0022981525
54	0x3a7f6920	0.0009743143
55	0xbc2f61d8	-0.01070448
56	0x3a8cd74e	0.0010745318
57	0xba97e51e	-0.0011588668
58	0xbc2f5960	-0.010702461
59	0xbaca61e5	-0.0015440552
60	0xbbcc2411	-0.0062298854
61	0xbb38e416	-0.0028212122
62	0x3ba4a223	0.005024211
63	0xbb5b12a8	-0.0033427868
64	0x3a1b08ee	0.00059141114
65	0xbb22befa	-0.002483307
66	0x3adb652f	0.0016738529
67	0xbb55a620	-0.003260024
68	0x3b3a60d1	0.0028439055
69	0xbbcadb38	-0.0061906837
70	0xbb7d800a	-0.0038681054
71	0x3c05fc59	0.00817784
72	0xbb92b5fd	-0.004477261
73	0xbabda650	-0.0014469121
74	0xbb1ecf3a	-0.0024232403
75	0x3b1698ff	0.0022979376
76	0xb95405ba	-0.00020220029
77	0x3b972532	0.0046125883
78	0x3c5a43d8	0.013321839
79	0xb8c7ec5e	-9.533086e-05
80	0x3b964e95	0.0045870044
81	0x3a838f6a	0.0010037248
82	0xbb8f7b5b	-0.004378719
83	0x3a870dfb	0.0010303849
84	0x3ba054d9	0.004892927
85	0xbb170d0e	-0.0023048553
86	0xbb4c50b5	-0.0031176035
87	0xbc234505	-0.009965186
88	0xbbacb135	-0.005270148
89	0xbc419fea	-0.011817912
90	0x3b65437f	0.0034982858
91	0x3be3909e	0.00694473
92	0x3b77c572	0.0037806896
93	0xba11248d	-0.00055367575
94	0xbb85dadc	-0.004084928
95	0x38c74cdc	9.5033756e-05
96	0x3c094947	0.008379287
97	0x3a7a5866	0.00095499156
98	0xbbea6cf9	-0.007154104
99	0xbc1473f9	-0.009060853
100	0xb9c41c0f	-0.00037404938
101	0xbb9ce474	-0.004787976
102	0xba858514	-0.0010186755
103	0x3c153bcf	0.009108498
104	0xbb86c03a	-0.0041122707
105	0x3b7e7294	0.0038825618
106	0xbb76336f	-0.0037567278
107	0x3ae530c9	0.0017485853
108	0x3a118fd8	0.00055527454
109	0x3b1f96df	0.00243514
110	0x3b3a05b6	0.0028384752
111	0x3bb39a4d	0.0054810406
112	0x3bf0f7e2	0.0073537687
113	0xbaec081b	-0.0018007787
114	0xbadc5601	-0.0016810299
115	0xba4de367	-0.0007854015
116	0x3aa13930	0.0012300368
117	0x3b10f610	0.002211932
118	0xbb016de2	-0.0019749333
119	0x3b3932d2	0.002825905
120	0xb88a1ef3	-6.5861175e-05
121	0xb6884679	-4.06132e-06
122	0xbb948971	-0.004532986
123	0x3b513cab	0.003192703
124	0xbb62b058	-0.0034589972
125	0x3a8af389	0.0010601144
126	0xbabe2322	-0.001450632
127	0xbb3ff8ef	-0.0029292663
128	0x3c0dbf6d	0.0086515965
129	0x3aac99d4	0.0013168403
130	0xbac05231	-0.0014672932
131	0xbb5dd819	-0.0033850728
132	0x3b59d9f1	0.0033241475
133	0xbbbd1a33	-0.0057709455
134	0x399ea667	0.00030260088
135	0xbabe1425	-0.0014501853
136	0x3bbcf73a	0.0057667764
137	0x3b44b428	0.0030014608
138	0x398b62ce	0.0002658576
139	0xb8df463d	-0.000106465515
140	0x3ba71ffa	0.0051002475
141	0x3c02972e	0.007970614
142	0x3b5eb055	0.0033979614
143	0xb9850009	-0.00025367763
144	0xbb46ef55	-0.0030355055
145	0xbaab555c	-0.0013071704
146	0x3a0e822d	0.0005436268
147	0xbab7a111	-0.0014009794
148	0xba756dd4	-0.0009362374
149	0x3b3bb786	0.0028643324
150	0x3ba91d2b	0.005160948
151	0xba40398d	-0.00073327945
152	0xbb2c4f94	-0.002629255
153	0xba21281f	-0.0006147641
154	0x3a59613d	0.00082923827
155	0x3b36c252	0.002788682
156	0xba46a896	-0.0007578222
157	0xbb322c6c	-0.0027187122
158	0xba8656b4	-0.0010249228
159	0xbab4eb40	-0.001380302
160	0x3a3b466c	0.00071439776
161	0x3b2af571	0.0026086236
162	0xb97abf67	-0.00023913161
163	0xbaa9d6a0	-0.001295764
164	0xbba05e36	-0.0048940433
165	0x3b88c73f	0.0041741426
166	0xbba0b24a	-0.004904066
167	0x3c01592f	0.007894798
168	0x3a5fab49	0.00085322984
169	0xbad065a1	-0.0015899428
170	0xbac6fac1	-0.0015180932
171	0xb9c9303c	-0.00038373645
172	0xb8d4acc1	-0.00010141126
173	0xbb0dd9e0	-0.0021644756
174	0x39cd9a61	0.00039215668
175	0x3bcc7d5f	0.0062405313
176	0x3b1e72a5	0.002417722
177	0x3c1d18de	0.009588448
178	0xbafc77d9	-0.0019261792
179	0x3bc554f8	0.006022092
180	0xbaab52eb	-0.0013070976
181	0x3b955226	0.004556912
182	0xb9b9ab2c	-0.00035413483
183	0x3b83daf2	0.004023903
184	0xba9ee7e3	-0.0012123551
185	0xba9bdd9d	-0.0011891607
186	0x3c1227ec	0.008920651
187	0xbbd2ff0d	-0.006439096
188	0xbb4975ba	-0.0030740337
189	0xba97bb0f	-0.0011576134
190	0xbab43c3a	-0.0013750859
191	0xbb1d711e	-0.0024023722
192	0x3a41f07e	0.0007398202
193	0x3a6d1aca	0.00090448244
194	0x3c57c725	0.013170038
195	0xba701535	-0.00091584335
196	0xba092398	-0.0005231439
197	0xbb90db31	-0.004420661
198	0x3a4efb6f	0.0007895743
199	0x3b3d8d3f	0.00289233
200	0xb9169e3a	-0.00014364059
201	0x3bef2495	0.007298062
202	0xbb636aaa	-0.0034701028
203	0x3ab9a78a	0.001416431
204	0x3ad4e2a7	0.0016241864
205	0x3ad467df	0.0016205272
206	0x3a8030f6	0.0009780216
207	0xba3a9126	-0.0007116966
208	0x389cd8ac	7.479018e-05
209	0x3a8faac5	0.0010960927
210	0xbba234a7	-0.0049501243
211	0x3bd19d09	0.006396894
212	0xbb331029	-0.0027322865
213	0xbb4b2a72	-0.0031000641
214	0x3b0ffe11	0.0021971504
215	0x3b985f02	0.0046499977
216	0x3a87c003	0.0010356907
217	0xbab112b6	-0.0013509605
218	0x3b495974	0.0030723484
219	0x3a776392	0.00094371394
220	0x3b5413ed	0.003236051
221	0x3a5b6272	0.00083688565
222	0x3a0015c7	0.00048860576
223	0x3c080eeb	0.008304338
224	0xbb51c87a	-0.0032010362
225	0x3b1076aa	0.0022043386
226	0x3beb28a8	0.0071764775
227	0xbb85e093	-0.004085609
228	0x3b34c174	0.0027581127
229	0xbc04194d	-0.008062673
230	0x3b886aaa	0.004163106
231	0xb9dac4f2	-0.00041726936
232	0xb94128dc	-0.00018421136
233	0xbb377fd7	-0.0027999782
234	0xbaa53fb0	-0.0012607481
235	0x3b1bcb85	0.002377243
236	0x3a9e5965	0.0012081085
237	0xbb2ad064	-0.0026064152
238	0x3a780019	0.0009460464
239	0x3aa7d235	0.0012803735
240	0x3a0b91b2	0.00053241395
241	0xbb47e32e	-0.00305004
242	0x3bd12a48	0.006383214
243	0x3c0679f5	0.008207788
244	0xbaa0bf4f	-0.0012264046
245	0x3ad91282	0.0016561302
246	0xbac070e0	-0.0014682077
247	0x3b9d293b	0.004796175
248	0xbb00a104	-0.0019627223
249	0x3a976c75	0.0011552708
250	0x3abdfdd6	0.0014495205
251	0x3a82580a	0.000994445
252	0x3a01e61f	0.000495525
253	0x39dd9549	0.0004226363
254	0x3baa8ba6	0.0052046357
255	0x3bf4f078	0.007474955

net.net.1.0.bias f4 [256]
0	0x3d1f8770	0.038947523
1	0xbbfdf447	-0.0077500674
2	0x3bdc46d4	0.0067223106
3	0x3d0b581a	0.034019567
4	0xbb847b2c	-0.0040430035
5	0xbca7c746	-0.020480763
6	0x3ce18f88	0.027534261
7	0xbcec4599	-0.02884178
8	0xbd3ed485	-0.046589393
9	0xbd3c7db1	-0.046018306
10	0x3c34be97	0.011031768
11	0x3d3c52a6	0.045977257
12	0xbd6b41a7	-0.057435658
13	0xbd325f0f	-0.043547686
14	0x3d58f2f3	0.05296607
15	0xbc9970e7	-0.018730594
16	0x3c8c1f6d	0.017104829
17	0xbd2b59fb	-0.04183386
18	0x3cb875d1	0.022517117
19	0xbd75dfd4	-0.060027912
20	0xbd3b1ed0	-0.045683682
21	0xbc75e3e9	-0.015007951
22	0x3d4e0992	0.050302096
23	0xbc3aeba7	-0.011408723
24	0x3d15ef06	0.036604904
25	0xba681325	-0.00088529504
26	0xbd4754c4	-0.048664823
27	0x3cc1d99b	0.023663333
28	0xbd688bd5	-0.05677398
29	0x3d254d99	0.040357206
30	0xbd157ed9	-0.036497924
31	0xbd3e03e0	-0.046390414
32	0x3d60e1d7	0.054902878
33	0xbb89c88c	-0.0042048153
34	0x3caea37e	0.021318194
35	0xbbfed70e	-0.0077771014
36	0x3cc09c50	0.023512036
37	0x3d323fef	0.043518003
38	0x3d3279f8	0.04357335
39	0x3cf453b5	0.02982507
40	0x3d50ea18	0.0510045
41	0xbd33d189	-0.043901
42	0xbccea3e5	-0.025224635
43	0x3cf266fa	0.029590119
44	0x3ca31bcc	0.019910716
45	0xbd4c5f89	-0.049895797
46	0x3d2dd185	0.04243614
47	0x3b904abf	0.0044034417
48	0xbd5ea12b	-0.05435292
49	0xbd1a0252	-0.03759987
50	0xbd227d89	-0.0396705
51	0x3c95f5c7	0.018305672
52	0x3d6a57e7	0.057212736
53	0xbc4de562	-0.012566896
54	0xbd2d047f	-0.042240616
55	0xbd4984f7	-0.04919907
56	0x3d0d1147	0.034440305
57	0x3d1a0e5a	0.037611343
58	0x3d58f108	0.05296424
59	0x3ca35a99	0.019940661
60	0xbd0ad99d	-0.03389894
61	0xbd520a2c	-0.051279232
62	0xbc762601	-0.015023709
63	0xbc08bb59	-0.008345448
64	0x3c962cd5	0.018331924
65	0xbd543f76	-0.051818334
66	0x3c72ba78	0.014814965
67	0xbbcf52aa	-0.006326993
68	0xbd4e9aa9	-0.050440464
69	0xbd2ff5e9	-0.042959128
70	0x3c8a0d7f	0.016852139
71	0x3d5a54d1	0.053303543
72	0xbd3c9d46	-0.046048425
73	0x3d524fff	0.05134582
74	0xbd3e89dd	-0.046518195
75	0x3d3fe301	0.046847347
76	0xbd047699	-0.032339666
77	0x3ccec012	0.02523807
78	0xbd361e6b	-0.044462603
79	0xbd200dba	-0.03907559
80	0x3c681130	0.014164254
81	0xbc8a4aa7	-0.0168813
82	0x3bf4fb0c	0.007476216
83	0x3c06e55e	0.008233396
84	0xbcebfc1f	-0.028806744
85	0xbb9abbc3	-0.00472209
86	0x3d7aba72	0.061212964
87	0x3d4e4ac2	0.050364263
88	0x3cbea3e4	0.023271509
89	0x3c8a42f0	0.016877621
90	0xbd203abf	-0.039118525
91	0xbc3e0597	-0.011598012
92	0xbd04b1bb	-0.03239606
93	0x3d0eae1b	0.03483401
94	0xbc09c5fb	-0.008409019
95	0xbd49e17b	-0.0492873
96	0x3d2408f3	0.040047597
97	0x3d45f9e6	0.048334025
98	0x3bf5842f	0.007492564
99	0x3d190c88	0.037365466
100	0x3cf83d44	0.030302651
101	0xbd107f28	-0.035277516
102	0xbb358be4	-0.002770179
103	0x3d5754e2	0.052571185
104	0xbd36ebc2	-0.04465843
105	0x3c7bcc3b	0.015368517
106	0x3d76338e	0.06010776
107	0x3a9a38ca	0.0011766192
108	0x3d551935	0.052025992
109	0xbb5383c5	-0.0032274586
110	0x3c9e2e4e	0.01930919
111	0xbd4696bb	-0.04848359
112	0xbd33cc40	-0.04389596
113	0x3c4b5ec2	0.012412729
114	0x3bd31bf8	0.006442543
115	0x3d39e89a	0.04538784
116	0xbc15796b	-0.009123187
117	0xbc228fd6	-0.0099219885
118	0x3d76dfe6	0.06027212
119	0x3d4bd587	0.049764182
120	0xbd044a1b	-0.032297235
121	0xbc856cde	-0.016287263
122	0x3d681782	0.056663044
123	0x3d127503	0.035756122
124	0x3b91a828	0.0044450946
125	0xbcac8107	-0.021057619
126	0xbcb7a9d2	-0.022419844
127	0xbd5fd1b5	-0.05464335
128	0xbbd78208	-0.00657678
129	0xbc97c468	-0.018526271
130	0xba7e93f4	-0.0009711378
131	0xbd7a4984	-0.061105266
132	0x3d6086bb	0.05481599
133	0x3d50c858	0.050972313
134	0xbd305daa	-0.043058075
135	0x39b86aae	0.00035174697
136	0xbc15f6bd	-0.009153065
137	0xbd0e977b	-0.03481243
138	0x3d81d565	0.0633953
139	0x3d46b0da	0.048508503
140	0xbd849d74	-0.06475344
141	0xbca39acd	-0.019971276
142	0x3d53e513	0.051732134
143	0xbd2f42ba	-0.042788245
144	0xbd740792	-0.059577532
145	0x3d2f018c	0.042726085
146	0xbcdf330d	-0.027246023
147	0xbd2dcfc1	-0.042434458
148	0x3d695875	0.056969125
149	0xbc5482d3	-0.012970644
150	0xbd69126a	-0.056902327
151	0xbcd205a7	-0.02563746
152	0x3d5ae3b2	0.053439803
153	0x3ce531d4	0.027977861
154	0xbcd8ebea	-0.02647968
155	0x3d43e4f1	0.047825757
156	0xbd3e6d52	-0.046490975
157	0xbd1e4b4c	-0.038646027
158	0xbd1f9705	-0.038962383
159	0xbcf96f5a	-0.030448604
160	0xb9380372	-0.00017548891
161	0x3d534325	0.051577706
162	0xbd56dfa6	-0.05245938
163	0xbc64b7a0	-0.013959795
164	0xbc6a0f01	-0.014285804
165	0xbd24bb3e	-0.04021763
166	0xbbac96a3	-0.0052669807
167	0xbd12d05d	-0.035843242
168	0x3d80ed3a	0.062952474
169	0x3b7470fa	0.0037298785
170	0xbbdbd5a8	-0.0067088194
171	0xbd0e87be	-0.034797423
172	0x3a0a3fd0	0.0005273791
173	0x3d4d9747	0.050193097
174	0x3d5f93f0	0.054584444
175	0xbd249fee	-0.040191583
176	0x3ca0cd35	0.0196291
177	0xbd2b78a3	-0.041863095
178	0xbb333751	-0.0027346204
179	0x3d2b1a6e	0.041773252
180	0xbd1910ab	-0.03736941
181	0x3d563859	0.05229983
182	0x3cc0b954	0.023525871
183	0x3cdf1040	0.027229428
184	0xbcbc7695	-0.023005763
185	0xbc7d4443	-0.015458169
186	0x3c7a8e38	0.015292697
187	0xbb85e79e	-0.004086449
188	0x3d5f125f	0.05446088
189	0x3d0a9520	0.033833623
190	0xbd6cc61f	-0.05780613
191	0x3d223320	0.039599538
192	0xbcbd0ce5	-0.023077438
193	0xbcaf39f2	-0.021389935
194	0xbc1e05cf	-0.00964494
195	0xbd2a4014	-0.041565016
196	0xbbb42806	-0.005497935
197	0xbc9579b9	-0.018246518
198	0x3d2575e8	0.040395647
199	0xbd6116dd	-0.054953445
200	0xbd26ab2e	-0.040690593
201	0x3d22ec65	0.039776225
202	0x3a98a9f3	0.0011647329
203	0x3cbfdfcd	0.023422146
204	0x3d3bca62	0.045847304
205	0xbd400c23	-0.046886574
206	0xbd452af0	-0.04813665
207	0x3cdfdc43	0.027326709
208	0x3d80cbd3	0.062888764
209	0xbc0e018e	-0.008667363
210	0xbca44367	-0.020051671
211	0x3d5bc6d9	0.053656433
212	0x39b71436	0.00034919538
213	0xbc09579f	-0.008382707
214	0x3d3cb074	0.046066716
215	0x3ba47ef3	0.0050200163
216	0x3bb5e33f	0.0055507715
217	0xbd412c7f	-0.047161575
218	0xbae9b56b	-0.0017830556
219	0xbd769f5d	-0.060210574
220	0xbd42b698	-0.047537416
221	0xbcce5b8a	-0.025190134
222	0xbc93e5da	-0.018053938
223	0xbd732c66	-0.059368514
224	0xbc6e6c21	-0.014552147
225	0x3d599343	0.053118955
226	0x3bcff7b3	0.0063466667
227	0xbd204798	-0.039130777
228	0xbd833ad7	-0.06407707
229	0x3c24f32b	0.010067741
230	0x3d27404e	0.04083281
231	0x3c9110ad	0.017708147
232	0xbb3c22d8	-0.0028707292
233	0x3d2d53d1	0.04231626
234	0xbd1cd971	-0.038293306
235	0xbd589596	-0.05287703
236	0xbc0bfbfb	-0.008543964
237	0x3d4ceb6a	0.050029196
238	0xbd1378fb	-0.036004048
239	0x3d43bf60	0.04778993
240	0x3d854d70	0.06508911
241	0x3c83f0d6	0.01610605
242	0xbc03cde0	-0.00804469
243	0x3d207c1b	0.039180856
244	0xbd74fcf7	-0.05981156
245	0xbc1f1433	-0.009709406
246	0x3c9d469b	0.019198706
247	0xbd59fce8	-0.053219706
248	0x3a193457	0.0005844286
249	0xbd7c5c16	-0.061611257
250	0xbd187fe6	-0.03723135
251	0x3d2610c9	0.04054335
252	0x3c50eafa	0.012751335
253	0x3d08e438	0.03342077
254	0x3d3f8437	0.04675695
255	0x3ad59a31	0.0016296563

net.net.2.0.weight f4 [256, 256]
0	0xbbe69130	-0.0070363507
1	0xba1dce6c	-0.0006019834
2	0xbaa6f873	-0.0012738839
3	0x3b2c410e	0.0026283893
4	0xbafb8c8a	-0.0019191664
5	0x3b8794ed	0.0041376264
6	0xbac0acfc	-0.0014699991
7	0x3b116ca8	0.0022190008
8	0xbb8c971c	-0.0042904746
9	0x3b8f843d	0.0043797777
10	0xbc163ac5	-0.009169285
11	0x3bc5baa4	0.006034212
12	0xbbd817d1	-0.006594636
13	0xbc05e38b	-0.008171926
14	0x3a9e40ff	0.0012073814
15	0xb99eafd6	-0.00030267116
16	0xbbe84a5c	-0.0070889425
17	0x3b830223	0.0039980575
18	0x3be8bb2f	0.007102392
19	0x3afad3dc	0.0019136625
20	0xbb2d3597	-0.0026429647
21	0xba751227	-0.0009348713
22	0xba5e933f	-0.00084905693
23	0xbbdc0e9c	-0.0067156088
24	0xbb22aaf1	-0.0024821127
25	0xbab879a2	-0.0014074335
26	0xbb629c66	-0.0034578084
27	0x3c7462f4	0.01491617
28	0xbaac6e58	-0.0013155444
29	0x3aa681a8	0.0012703435
30	0xbc197dab	-0.0093683405
31	0xbb9ae31e	-0.0047267815
32	0x3b18ea5a	0.0023333044
33	0xbb0b1237	-0.0021220574
34	0x3a21c91b	0.00061716296
35	0xbb8d79c5	-0.0043174946
36	0xba08634c	-0.00052027847
37	0xbaea4080	-0.0017872006
38	0x3b2eb273	0.0026656657
39	0x3b0dc421	0.0021631795
40	0x3c11a639	0.008889728
41	0x3b8410f8	0.004030343
42	0xbb07fd3f	-0.0020750312
43	0x3bbc8be9	0.0057539833
44	0x38e0e120	0.00010723085
45	0x3a6dbecd	0.0009069264
46	0x3bbc4f59	0.0057467637
47	0x3b651ec2	0.003496096
48	0xbbd53f07	-0.0065077576
49	0xbbb7f2e0	-0.0056136698
50	0xbc04c818	-0.008104347
51	0x3b4be71b	0.0031113091
52	0x3baea92f	0.005330227
53	0x3b58a6da	0.0033058436
54	0xbc006849	-0.0078373635
55	0xbad7e287	-0.0016470709
56	0xbb0852c1	-0.0020801278
57	0xbbb055a9	-0.0053813052
58	0x3c130889	0.008974203
59	0xbaa643f4	-0.0012685047
60	0xbb517e35	-0.0031966094
61	0xbb2177ad	-0.0024637983
62	0x3ab73c81	0.0013979824
63	0xbb02fe5c	-0.0019988036
64	0x3b14e2b9	0.0022718145
65	0x3a7defbf	0.0009686909
66	0x3aab3c9b	0.0013064326
67	0xbb64c9be	-0.0034910287
68	0x3a228ae4	0.0006200506
69	0xbc2ab34a	-0.010418722
70	0x3b8dccc7	0.00432739
71	0x3b06fc16	0.0020597032
72	0x3bf84802	0.0075769434
73	0x3b94647e	0.004528581
74	0x3bae8d01	0.0053268676
75	0xbbcf2683	-0.0063217296
76	0xb9f2ac90	-0.00046286406
77	0xbbdf0330	-0.0068058
78	0x3bbbfab7	0.0057366746
79	0xbba3b61c	-0.0049960744
80	0xbb8d45e9	-0.0043113125
81	0x3bdf8cbc	0.0068221968
82	0x39d5673e	0.00040703447
83	0xba23d1f9	-0.0006249245
84	0xbc0718cb	-0.008245657
85	0x3c7ca9e3	0.0154213635
86	0xbc2346af	-0.009965583
87	0x3b8996d3	0.004198888
88	0xba35822b	-0.00069239986
89	0xb8f0134d	-0.00011447687
90	0xbc41d9c0	-0.011831701
91	0xbbc1804a	-0.005905186
92	0x3b16da99	0.0023018478
93	0xbb9418bc	-0.00451955
94	0xbbb54b2b	-0.0055326424
95	0x3bb1e6d2	0.0054291273
96	0xbb30d08d	-0.0026979775
97	0x3b82ac3b	0.0039878166
98	0xbb0bb709	-0.0021318814
99	0xbc267afe	-0.01016116
100	0x3bc19c54	0.0059085283
101	0xbb8ffb98	-0.004394006
102	0xb9f04cce	-0.0004583359
103	0xb9e6b0b4	-0.00044000673
104	0x3b4980db	0.003074697
105	0xbaf187bf	-0.0018427296
106	0x3ba46e7b	0.005018053
107	0x3b8df113	0.004331717
108	0xbacf55a8	-0.0015818374
109	0x3c431c63	0.011908623
110	0xbb50c7f6	-0.0031857467
111	0xbc50fef1	-0.012756095
112	0x3b98d6cb	0.004664277
113	0x3bdea5fe	0.00679469
114	0x3bbf52db	0.0058387346
115	0xbaec5724	-0.0018031341
116	0xbbab1c5f	-0.005221888
117	0x3b678048	0.0035324264
118	0xbb7296f1	-0.0037016238
119	0xbab2ce3c	-0.0013641785
120	0xbb9d0ab4	-0.0047925357
121	0x3bae306d	0.0053158314
122	0x3bb6ead4	0.005582193
123	0xbc56fc90	-0.013121739
124	0x3c12d3d6	0.008961638
125	0x3b839921	0.004016057
126	0x3bed3a86	0.0072396426
127	0xbbeee2c3	-0.0072902157
128	0x3b28fb2e	0.002578448
129	0xbb9335f7	-0.004492517
130	0x3b170735	0.0023045067
131	0x3b2b4593	0.0026133999
132	0xbbd0caa7	-0.0063718143
133	0x3b73bfb6	0.0037193126
134	0xbb148f91	-0.002266858
135	0xbbfdcf7e	-0.0077456823
136	0xbb875091	-0.0041294773
137	0x3c35560f	0.011067881
138	0x3a3afa06	0.00071325933
139	0xbb9a3b78	-0.0047067963
140	0xbbd2b893	-0.0064306944
141	0x3b9777cf	0.0046224366
142	0x3abb0f86	0.0014271594
143	0x39506c79	0.00019876835
144	0x3ba17658	0.0049274378
145	0x3aa366cd	0.001246655
146	0xba9789e7	-0.0011561484
147	0xbb949ada	-0.0045350613
148	0x3bfecbc8	0.0077757575
149	0xbad022c5	-0.0015879503
150	0x3c0163aa	0.007897297
151	0x3ae19622	0.0017210881
152	0x3b481f2a	0.0030536153
153	0xbb1e6c71	-0.0024173523
154	0xbac7ab99	-0.0015233635
155	0x3b4cf0bb	0.0031271416
156	0x3b67d7ca	0.0035376423
157	0xbc11c4f9	-0.00889706
158	0x38f80bae	0.00011827737
159	0xbc4514f8	-0.012028925
160	0x3bfbdf7c	0.0076865535
161	0xbbee97f2	-0.007281297
162	0x3b842649	0.0040328843
163	0x3b587e30	0.0033034198
164	0xbc12d69d	-0.008962301
165	0xb8715207	-5.753527e-05
166	0xbaca1c85	-0.0015419876
167	0xbc52ca5e	-0.012865631
168	0xbbafa7c2	-0.0053605745
169	0x3ba737b4	0.005103076
170	0x3bbe8773	0.0058144866
171	0xbc0a60d2	-0.008445935
172	0xba9e45f2	-0.0012075289
173	0x3b5bb74f	0.0033526008
174	0xbb8c82e1	-0.004288063
175	0x3bb5b6fb	0.0055454946
176	0xbb065ace	-0.00205009
177	0xbb87007f	-0.004119932
178	0xbb05dd0d	-0.0020425946
179	0x3b93c1a1	0.0045091663
180	0xbb7a1974	-0.0038162144
181	0xbaf671b9	-0.0018802203
182	0xbc20a6bf	-0.00980538
183	0xbb63f16a	-0.0034781345
184	0x38f84c63	0.0001183979
185	0x3aafffb9	0.0013427652
186	0x3b440c05	0.002991439
187	0x3916f80e	0.00014397522
188	0xb996ad74	-0.00028739462
189	0x3b8a5407	0.0042214426
190	0xbb2cfc93	-0.0026395663
191	0xbc01e03e	-0.007926999
192	0x3a760a91	0.000938573
193	0x3bdf5ac2	0.006816239
194	0xba222321	-0.0006185044
195	0xbad60ba4	-0.0016330373
196	0x3babc576	0.005242045
197	0x3b4297ed	0.0029692606
198	0xb9ffc762	-0.00048785942
199	0x3c02db65	0.007986878
200	0x3bb20631	0.005432867
201	0x3c47af7e	0.012187837
202	0xbb7e6ed0	-0.0038823374
203	0xbbfcbc88	-0.0077129044
204	0x3b8e3925	0.0043403083
205	0x3aa39893	0.0012481384
206	0xbc26dd31	-0.010184572
207	0xbb4e8872	-0.0031514433
208	0xbbabda9c	-0.005244566
209	0x3aa2707f	0.0012393146
210	0xbc2b956a	-0.010472635
211	0x3ba1912b	0.0049306354
212	0x3bfc8165	0.0077058547
213	0xbb085e10	-0.0020808019
214	0xbb0a70e8	-0.0021124426
215	0xb98649c8	-0.00025613443
216	0x3b092951	0.0020929168
217	0xbb01e3f0	-0.00198197
218	0xbc5e2419	-0.013558411
219	0x3b9ffdf8	0.0048825704
220	0xbc08db1d	-0.008353022
221	0x3b97fa4a	0.004637991
222	0x3affcc08	0.0019515762
223	0x3aff5f99	0.0019483446
224	0xba0cefe9	-0.00053763256
225	0x3b044cf8	0.0020187479
226	0x3bfb67ce	0.0076722866
227	0x3b9f08b7	0.004853334
228	0x3ba8ef90	0.005155511
229	0x395ff47a	0.00021358012
230	0xbb8ca2a8	-0.004291851
231	0xbc59ed78	-0.013301246
232	0x3aa48f96	0.0012554999
233	0x3b3ced12	0.0028827828
234	0x3c080114	0.008301038
235	0x3c17043e	0.00921732
236	0x3c080b43	0.008303466
237	0x3c01fd3c	0.007933911
238	0x3ae98023	0.0017814677
239	0xb9ff1a56	-0.00048657012
240	0xbb895213	-0.004190692
241	0xbb429162	-0.0029688706
242	0xbb0eb2ae	-0.0021773982
243	0x39087396	0.0001301303
244	0xbc30fd0d	-0.0108025195
245	0x3bbf3853	0.005835572
246	0x3b6a1deb	0.00357234
247	0x3c0c2ec7	0.008556074
248	0xbb3b15c0	-0.00285469
249	0x3a969f6e	0.0011491606
250	0x3b178417	0.0023119503
251	0x3bda579e	0.006663277
252	0x3c133de8	0.008986928
253	0xb9c7535a	-0.0003801834
254	0xbbf4a5d2	-0.0074660564
255	0xbb9025dc	-0.0043990444

net.net.2.0.bias f4 [256]
0	0xbab36fe8	-0.0013689967
1	0xbca2b7ae	-0.019862976
2	0x3d96b99a	0.073596194
3	0xbd540090	-0.05175835
4	0x3d605ac2	0.054774053
5	0x3c98e543	0.018664008
6	0x3d8bd668	0.06828004
7	0xbc34428d	-0.011002195
8	0xbc052f5b	-0.008128966
9	0x3d9464af	0.07245766
10	0x3ba719a3	0.0050994917
11	0x3c94b837	0.018154247
12	0x3d3d0cec	0.0461549
13	0x3d51f54a	0.051259317
14	0x3d8c2ae4	0.06844118
15	0x3d072367	0.032992747
16	0xbd0b4508	-0.03400138
17	0xbd16b749	-0.036795888
18	0x3c11a187	0.008888609
19	0x3d412e9a	0.047163583
20	0xbd37c64a	-0.044866838
21	0xbd04fec9	-0.032469545
22	0xbcc3d1b6	-0.023903709
23	0xbc04d526	-0.008107459
24	0xbc88b6b8	-0.01668869
25	0x3d068eff	0.032851215
26	0xbc72485c	-0.01478776
27	0x3d9a321e	0.0752909
28	0x3d1cf0fa	0.03831575
29	0xbbe38702	-0.0069435844
30	0x3d5c406d	0.05377238
31	0x3cad40af	0.021149008
32	0xbd57e1b9	-0.0527055
33	0x3cbb4861	0.022861661
34	0xbd410ac7	-0.04712942
35	0x3b1b9fbe	0.0023746337
36	0xbcd28de8	-0.025702432
37	0x3c8359a3	0.016033953
38	0x3b3d7fcd	0.0028915287
39	0xbc1fcb74	-0.009753097
40	0xbcd6ee34	-0.026236631
41	0x3b662b86	0.0035121157
42	0xbc585c3c	-0.013205584
43	0xbd5f8984	-0.054574504
44	0x3bd77d6f	0.006576232
45	0xbbc0575d	-0.0058697895
46	0x3cc002de	0.023438867
47	0x3ca686bf	0.020327924
48	0xbc93d085	-0.018043766
49	0xbd12c9f5	-0.035837132
50	0x3cb294fb	0.021799555
51	0xbd8fbf72	-0.07018937
52	0xbd6bf1f9	-0.05760381
53	0xbc8b24c5	-0.016985307
54	0xbcda16bc	-0.026622169
55	0x3bd17e11	0.006393202
56	0x3d4bd3ed	0.049762655
57	0xbcf5fa9e	-0.03002673
58	0xbd65f68d	-0.056143332
59	0x3c345198	0.011005782
60	0xbc6bb0bb	-0.014385398
61	0xbbfe12df	-0.0077537145
62	0xbc86eeda	-0.016471315
63	0xbd6ba678	-0.057531804
64	0x3bb9e162	0.0056726197
65	0x3d72c134	0.059266284
66	0xbc333eaa	-0.010940233
67	0x3d8bfd11	0.06835378
68	0x3c2f5d15	0.010703345
69	0x3d0edbe2	0.034877665
70	0xbd2cb47f	-0.042164322
71	0xba561e40	-0.000816796
72	0xbc10707a	-0.008815879
73	0xbc900387	-0.017579807
74	0xbbbd5508	-0.005777959
75	0xbd2b04aa	-0.041752495
76	0x3c99bbb9	0.018766271
77	0xbc7fa443	-0.015603128
78	0xbd862b21	-0.06551195
79	0x3d21dfba	0.039520003
80	0x3d865156	0.06558482
81	0xbc9fa0af	-0.0194858
82	0x3d454086	0.048157237
83	0xbd6c9191	-0.05775601
84	0xbd3371b0	-0.043809593
85	0xbd946747	-0.07246261
86	0x3d079ccd	0.03310852
87	0x3d6a2abe	0.05716967
88	0x3d34a910	0.044106543
89	0xbd8edddb	-0.06975909
90	0x3d2f2d2d	0.042767692
91	0xbd6c51c2	-0.057695158
92	0xbd475b62	-0.048671134
93	0xbc7d1e7d	-0.0154491635
94	0x3cde47e0	0.027133882
95	0xbc9e562f	-0.019328205
96	0xbd681495	-0.056660254
97	0x3d476885	0.048683662
98	0x3c7fe59a	0.015618706
99	0x3c0a85c5	0.008454745
100	0x3c35ee43	0.011104169
101	0x3d457e0e	0.04821592
102	0x3d4e5f1e	0.05038368
103	0x3cfca876	0.030842047
104	0x3c6eef88	0.014583476
105	0x3c2e7dd2	0.010650115
106	0x3ca82c8e	0.020529058
107	0x3c07fae5	0.008299564
108	0x3c8e3925	0.017361233
109	0x3d547057	0.051864948
110	0xbcbe3ff3	-0.023223853
111	0xbc1685ec	-0.009187203
112	0x3bf612f2	0.0075095827
113	0x3d0c36ad	0.03423183
114	0x3d6b396d	0.057427812
115	0x3c12af68	0.008952953
116	0x3c764d3c	0.015033063
117	0xbd62438e	-0.055240206
118	0x3cdcec57	0.026968164
119	0x3c903276	0.017602187
120	0xbcbec507	-0.02328731
121	0xbca74b22	-0.020421568
122	0xbc1d72a7	-0.009609855
123	0x3d18a48e	0.037266307
124	0xbcb30522	-0.021853033
125	0xbd0d6ef4	-0.03452964
126	0x3bd8cc47	0.0066161486
127	0x3d453dff	0.048154827
128	0x3c0834eb	0.008313398
129	0x3cea89d2	0.028630171
130	0xbd656034	-0.05599995
131	0xbbb18670	-0.0054176375
132	0xbbb6a42e	-0.005573771
133	0xbd8c18b8	-0.06840652
134	0x3d01c09d	0.03167783
135	0x3caf49e7	0.021397544
136	0x3cb1cdd4	0.021704592
137	0xbd47abe6	-0.04874792
138	0x3aa0eba2	0.0012277255
139	0xbc6c6405	-0.014428143
140	0x3ceb32d0	0.028710753
141	0xbcfe113b	-0.031014076
142	0xbcf3add0	-0.029745966
143	0x3d11ef0b	0.03562836
144	0x3d56be14	0.052427366
145	0x3d370a2c	0.044687435
146	0xbd82d895	-0.06388966
147	0x3d76c32f	0.060244735
148	0x3b76b647	0.0037645267
149	0x3c2ae92c	0.010431569
150	0xbc2ae47a	-0.01043045
151	0x3d0cee36	0.034406863
152	0x3c94dfe1	0.01817316
153	0x3c7e66a6	0.015527403
154	0x3c7ac4ff	0.015305757
155	0xbcdb35a9	-0.026758986
156	0x3d1539ae	0.03643196
157	0x3d45d1bf	0.048295733
158	0xbd3697f1	-0.044578496
159	0xbc0f34cd	-0.008740616
160	0xbc13bf19	-0.009017729
161	0xbc5adb1b	-0.013357903
162	0xbb340e2b	-0.0027474265
163	0xbd941ea5	-0.072324075
164	0x3cdc1803	0.026866918
165	0xbd1d928c	-0.038469836
166	0x3d7e32b9	0.06206009
167	0xbd4b3fb6	-0.049621306
168	0x3cf8d370	0.030374259
169	0x3d0f7ed0	0.035033047
170	0x3d8cedb5	0.068812765
171	0xbd6a86b5	-0.057257373
172	0x3d5d4fcb	0.054031175
173	0x3c426efb	0.01186728
174	0x3c288081	0.010284544
175	0xbbbec1f8	-0.0058214627
176	0xbd002bf9	-0.031291936
177	0xbcefe902	-0.029285911
178	0xbd194267	-0.03741684
179	0xbc76a602	-0.015054228
180	0xbb03b92f	-0.0020099392
181	0x3c633748	0.013868161
182	0x3d81652a	0.06318124
183	0xbcbdecf9	-0.023184286
184	0x3d2f6f60	0.042830825
185	0x3d6e523c	0.058183894
186	0xbc95ed4c	-0.018301629
187	0xbcaa4a40	-0.020787358
188	0x3d01021c	0.031496152
189	0x3d107e3d	0.03527664
190	0xbd326e42	-0.04356218
191	0x3c111bcf	0.008856728
192	0x3b348717	0.002754634
193	0xbc7f708b	-0.015590797
194	0x3d803613	0.06260314
195	0x3d1e76c5	0.038687486
196	0x3c9fda5e	0.019513305
197	0x3b507701	0.0031809213
198	0xbd865974	-0.065600306
199	0x3ccc5b1b	0.024945786
200	0x3cdce6f4	0.026965596
201	0x3cd737ae	0.026271667
202	0xbc20bc35	-0.009810497
203	0xbc2abf1d	-0.0104215415
204	0x3d97fb09	0.07420928
205	0x3ca32d96	0.019919198
206	0x3d144471	0.036198083
207	0x3d3aba18	0.04558763
208	0x3c5f9233	0.013645696
209	0x3d0fac14	0.035076216
210	0x3d875f6c	0.06609997
211	0x3c1d92e1	0.009617538
212	0xbcac4ca6	-0.021032643
213	0x3a579942	0.00082244363
214	0x3d0ecdfa	0.034864403
215	0xbd0a657d	-0.033788193
216	0xbb0dda87	-0.0021645145
217	0x3d32ee5d	0.043684352
218	0xbbeaa1da	-0.0071604075
219	0x3b56f810	0.0032801665
220	0xbcd3a379	-0.025834786
221	0x3b73d9ba	0.0037208633
222	0x3cace4e0	0.02110523
223	0x3d9070bd	0.07052753
224	0xbcf478c6	-0.029842746
225	0x3be03c7b	0.0068431473
226	0x3cc0f06e	0.023552146
227	0xbd3bebc5	-0.045879144
228	0xbd8eb2fc	-0.06967732
229	0xbc911ff2	-0.017715428
230	0xbd4727be	-0.048621885
231	0x3d924fb2	0.07144107
232	0xbccc64dd	-0.02495044
233	0x3c92c01c	0.01791387
234	0xbd4b8482	-0.049686916
235	0xbb5f0aa4	-0.0034033442
236	0xbcb4cd7d	-0.02207064
237	0xbba40a58	-0.005006116
238	0x3d1b8149	0.037965093
239	0x3c8d8497	0.017275138
240	0xbc23b297	-0.00999131
241	0x3c31befc	0.010848757
242	0xbcf30bff	-0.029668806
243	0x3d920bc4	0.0713115
244	0xbcb758ca	-0.022381205
245	0x3d7bca3a	0.061472155
246	0xbd6513b6	-0.055927
247	0x3d2bbbad	0.04192703
248	0x3d5173d6	0.05113586
249	0xbd110f2b	-0.035414856
250	0xbc07f8a4	-0.008299027
251	0xbd729d49	-0.05923203
252	0xbcb2d305	-0.021829138
253	0x3d759c87	0.05996373
254	0x3c779b96	0.015112778
255	0xbba70c8d	-0.0050979317

net.net.3.0.weight f4 [256, 256]
0	0x3b27ad2c	0.0025585396
1	0xbcdab26f	-0.026696412
2	0x3a77f62d	0.00094589853
3	0x3a1f4b82	0.000607662
4	0xbd145c10	-0.03622061
5	0x3c427ce1	0.011870594
6	0xbbb49847	-0.005511317
7	0xbacc797e	-0.0015600172
8	0x3b9c47ce	0.004769302
9	0xbc901e6d	-0.017592633
10	0x3ba9018e	0.005157656
11	0x3be88e89	0.0070970696
12	0x3c660f1c	0.014041688
13	0xbca39a65	-0.019971082
14	0xbad4ffa0	-0.0016250499
15	0x3c8012ca	0.01563396
16	0xbb278d4c	-0.0025566397
17	0xbb6af38d	-0.0035850734
18	0x3c927147	0.01787628
19	0x3ac9f7a9	0.0015408891
20	0x3b5c2c20	0.0033595636
21	0x3c9aca6b	0.018895349
22	0x3c9dbb63	0.019254392
23	0x3c4c83b3	0.012482571
24	0x3bde6817	0.006787311
25	0xbba13412	-0.0049195373
26	0x3ca43527	0.020044876
27	0x3bb68910	0.0055705383
28	0x3b9c9df9	0.004779574
29	0x3ca8ae48	0.020590916
30	0xba2b4bb9	-0.0006534416
31	0x3b98a8d3	0.0046587973
32	0xbc1ec075	-0.00968944
33	0xbcce751a	-0.025202323
34	0xbbcaef06	-0.0061930446
35	0xbb8818ac	-0.0041533317
36	0x3c0d66e7	0.008630491
37	0xbcf1d171	-0.029518815
38	0xbc8fc893	-0.017551696
39	0xbb9b1269	-0.0047324193
40	0x3bda937f	0.006670415
41	0x3c1729e5	0.009226297
42	0xbcd0ce90	-0.025489122
43	0xbc54025b	-0.012940015
44	0xbb79fd67	-0.0038145424
45	0xbc595f26	-0.013267314
46	0xbccc8b2f	-0.024968712
47	0xbbf5499c	-0.0074855816
48	0x3befe6df	0.007321223
49	0xbbfe5165	-0.007761168
50	0x3b3a52ea	0.0028430768
51	0x3a47f243	0.00076273474
52	0xbc0d46da	-0.008622849
53	0xbc61942a	-0.013768235
54	0x3c22050d	0.0098888995
55	0x3c9746d3	0.018466389
56	0xbbd70dd6	-0.0065629287
57	0xbc0fbe5c	-0.008773413
58	0x3b2d3484	0.0026429007
59	0x3ccb84ec	0.024843656
60	0xbd157f50	-0.036498368
61	0xbbeb7dc2	-0.0071866224
62	0x3790abca	1.7246133e-05
63	0xbc6eadd0	-0.014567807
64	0x3c94e94a	0.018177647
65	0xbcda855c	-0.026674919
66	0x3c07f7c3	0.008298817
67	0xb97ec23f	-0.0002429569
68	0x3c27f559	0.0102513665
69	0xbcdb0881	-0.026737453
70	0xbab5d671	-0.0013873113
71	0x3ba64608	0.0050742663
72	0x3cbbcca7	0.022924734
73	0x3c817f16	0.01580767
74	0x3ca5430b	0.02017357
75	0xbbd9fa26	-0.0066521345
76	0x3ad64bd3	0.0016349502
77	0xbab0f181	-0.0013499708
78	0xbb8a10d5	-0.0042134323
79	0x3cbdbe50	0.023162037
80	0xbc07ccaf	-0.008288546
81	0x3c31a0c1	0.010841549
82	0x3c87f7c6	0.01659764
83	0x3c84bc70	0.016203135
84	0x3bc4a66a	0.0060012834
85	0xbbd95c4b	-0.0066333166
86	0x3c9ff75f	0.019527135
87	0xbc438f87	-0.011936075
88	0x3c06cea7	0.008227981
89	0xbabde931	-0.0014489052
90	0xbcbebf03	-0.02328444
91	0x3c128a85	0.008944158
92	0xbc1b8553	-0.009492236
93	0xbb9703c7	-0.0046086046
94	0xbc7b57bf	-0.0153407445
95	0xbb395fbe	-0.0028285827
96	0x3b1a7a99	0.002357161
97	0xbcf6f1e2	-0.030144636
98	0x3c32c4ba	0.010911161
99	0xbb518f2d	-0.0031976209
100	0xbbd80e48	-0.0065934993
101	0xb7523fd2	-1.2531835e-05
102	0xbbe33e2c	-0.0069349017
103	0xbc3d9a1d	-0.011572388
104	0x3b4fb1d8	0.0031691696
105	0x3c2433cf	0.010022118
106	0x3c872099	0.016495036
107	0x3ba4de91	0.005031415
108	0xbc88bd54	-0.016691841
109	0x3b2c2a9f	0.0026270521
110	0x3c460449	0.012085983
111	0xb9aec027	-0.0003333103
112	0xbcf59b34	-0.029981233
113	0xbc410968	-0.011782028
114	0x3c8cdc36	0.017194849
115	0xbc5feab6	-0.013666799
116	0xbc9c5055	-0.019081274
117	0x3b8183ec	0.003952494
118	0xbc282ec2	-0.010265054
119	0x3b389dcb	0.0028170224
120	0x3c881813	0.016613042
121	0x3c475167	0.012165404
122	0x39451972	0.00018796863
123	0xbc4246d1	-0.011857704
124	0xbbe2637c	-0.006908832
125	0x3b160edd	0.0022897043
126	0x3c43f918	0.011961244
127	0xbad02c36	-0.0015882317
128	0x3c19c502	0.009385349
129	0xbce5f187	-0.02806927
130	0x3c3143c7	0.010819382
131	0xbbd05de1	-0.0063588475
132	0xbc2e3dea	-0.010634879
133	0xbca8ab61	-0.020589532
134	0xbcb4a1c2	-0.022049788
135	0xbcc3a157	-0.023880644
136	0x3c1749cb	0.009233902
137	0x3c09865b	0.008393849
138	0xbc09b64e	-0.008405281
139	0xbaa28804	-0.0012400155
140	0x3b8833d0	0.004156567
141	0xbc4faec8	-0.012675948
142	0x3c97053e	0.018435117
143	0x3ca9eb12	0.020741973
144	0x3b95c15b	0.004570169
145	0x3a9cb47c	0.0011955644
146	0xbc03e48d	-0.008050096
147	0x3ceb5fbf	0.028732179
148	0xbcef204a	-0.029190201
149	0x3c4be33c	0.012444314
150	0x3ce9b15c	0.028526954
151	0xbc83a1a4	-0.016068287
152	0xbbebd45e	-0.007196947
153	0xbc954cfa	-0.018225182
154	0xbbb1c253	-0.0054247766
155	0xbc379ae8	-0.011206366
156	0xbbb48888	-0.00550944
157	0x3b73a014	0.0037174271
158	0x3a83ef3e	0.0010065807
159	0xbd11b15a	-0.035569526
160	0x3cc0b985	0.023525963
161	0x3b34f3a1	0.0027611034
162	0x3b17af67	0.002314532
163	0xbbbd78df	-0.005782231
164	0x3c564b3f	0.0130794635
165	0xbc3eca38	-0.011644892
166	0xbce959a2	-0.028485123
167	0xbbba7ac4	-0.0056909043
168	0x3b1a62af	0.0023557355
169	0xbc6fcbbc	-0.014635976
170	0xbc798076	-0.015228381
171	0xbc57cd80	-0.013171554
172	0xbb586825	-0.003302106
173	0xba534ec5	-0.0008060749
174	0x39cd91f2	0.00039209385
175	0xbcb88834	-0.022525884
176	0x3c28634d	0.010277581
177	0xbce50026	-0.027954172
178	0xbb9424d3	-0.0045209914
179	0xbc38d04f	-0.011280133
180	0x3ca50ed4	0.020148672
181	0xbc457b81	-0.012053371
182	0xb993ec50	-0.0002821409
183	0xbc2d629b	-0.010582591
184	0xbc1687ca	-0.009187648
185	0x3c22118e	0.009891881
186	0x3c1d0465	0.009583567
187	0x3b8e3ade	0.0043405136
188	0x3cafd35b	0.021463087
189	0xbc47a9f0	-0.012186512
190	0xbc1e6834	-0.009668399
191	0x3c45e836	0.012079289
192	0xbb1a28bb	-0.0023522812
193	0xbb756b35	-0.0037447934
194	0xbc489583	-0.012242678
195	0x3c431919	0.011907839
196	0xbc4a01cb	-0.012329529
197	0xbca2ed72	-0.019888613
198	0x3ccf92de	0.025338586
199	0xbaa2abe0	-0.0012410842
200	0x3b5b333e	0.003344729
201	0x3bd425e5	0.006474244
202	0x3c024f29	0.007953444
203	0xbc1931ea	-0.009350279
204	0xbbc1c369	-0.0059131873
205	0x3ca13e7e	0.019683119
206	0xbbcc6192	-0.006237217
207	0xbb0774c6	-0.0020668968
208	0x3c58fbbc	0.013243612
209	0x3a32b7fd	0.00068175775
210	0x3aec77a7	0.001804103
211	0xbc7e5c58	-0.015524946
212	0xbb8d6a1b	-0.0043156273
213	0x3b1ce1a1	0.0023938196
214	0xbb32af37	-0.002726508
215	0xbc35c1f4	-0.011093605
216	0xba9a586b	-0.0011775618
217	0x3bbdd5b5	0.005793298
218	0xbbb14d14	-0.0054107998
219	0xbc2ac489	-0.010422834
220	0x3d161d97	0.036649313
221	0x3c84f43f	0.016229747
222	0xbbc7fc5d	-0.006103082
223	0x3c00433c	0.00782853
224	0x3ca2b7df	0.019863067
225	0xbbda7e99	-0.0066679236
226	0xbc407920	-0.011747628
227	0x3a0f54a6	0.00054676307
228	0x3c16f390	0.009213343
229	0x3aa6c775	0.0012724238
230	0x3c53fa74	0.012938131
231	0xbc40d244	-0.011768881
232	0xbc4d8eef	-0.012546285
233	0xbc900bfe	-0.017583843
234	0xbb929ff6	-0.0044746352
235	0x3c7e21cb	0.015510987
236	0xbbb52750	-0.005528368
237	0x3b3426d1	0.0027488957
238	0xbc0c1bef	-0.008551582
239	0x3b81021c	0.003937019
240	0x3c56a7fd	0.013101575
241	0xbb2e5775	-0.0026602421
242	0x3cfc9f04	0.030837543
243	0x3a635eca	0.00086734875
244	0x3c03c15f	0.008041709
245	0x3c01d642	0.007924618
246	0x3ba70d15	0.005097995
247	0xb9ff94ad	-0.00048748162
248	0xbb504654	-0.00317802
249	0x3cd0411a	0.025421668
250	0x3cb97db0	0.02264294
251	0xbbff1792	-0.007784792
252	0xbc38ea11	-0.0112862745
253	0xbc8ba743	-0.01704753
254	0xbca8fe71	-0.02062914
255	0x3c139bb4	0.0090092905
