experiment_scripts/logs/geo_experiment_1/checkpoints/model_final.pth (torch_old, 796678 bytes, 9 tensors)

net.net.0.0.weight f4 [256, 3]
000000 3c 07 51 3e 71 00 80 3e b5 55 52 be e5 0e 0b 3d
       0.20412916 0.25000337 -0.20540507 0.03394975
000010 bd d0 93 be 97 f2 11 3e 75 96 88 be 57 8f 80 bd
       -0.28870192 0.14252697 -0.2667729 -0.0627734
000020 20 49 39 be e7 c0 89 bc 12 5f 60 bc 83 c0 35 be
       -0.18094301 -0.016815616 -0.0136945415 -0.17749219
000030 d1 a3 93 bd ea b3 ba 3c 7d b3 85 3e 24 dd 90 3d
       -0.0720898 0.022790868 0.261135 0.07073429
000040 bd ef fa 3d 28 3c 3d be b8 9e 16 3c fc 56 2f be
       0.12252758 -0.18479979 0.009193115 -0.17123026
000050 cf 02 ff bd e4 4a 4e 3e e0 d3 f9 3d 3c d2 15 3d
       -0.124517076 0.20145756 0.12198615 0.03657745
000060 92 97 7b be 03 28 c5 3d ef ef 5a be 00 0a 40 be
       -0.24569538 0.09626772 -0.2138059 -0.18753815
000070 f3 09 4c 3e aa 1e 99 3e e4 4a 14 3b 23 de a1 3e
       0.1992567 0.29906207 0.0022627646 0.3161479
000080 d6 e0 2a be 90 4e 0b be 8c 3a 95 3e 30 1d 78 be
       -0.1668733 -0.13604188 0.2914623 -0.24229884
000090 b6 ef 94 bd 57 2f 0c bc 80 2a 28 bd 8d b4 1c 3e
       -0.07272284 -0.008556209 -0.041056156 0.1530325
0000a0 99 df e9 bc 40 47 1d 3d 0c ed 5d bd d8 e6 2f be
       -0.028549002 0.038398027 -0.054181144 -0.17177904
0000b0 cb 86 c7 3e af e4 a0 3d a5 29 3f 3e 0b af 24 bd
       0.38970026 0.07856118 0.1866823 -0.040205996
0000c0 b0 fe 31 bd b6 54 a3 3d 55 30 1d 3e 6e 4c 93 be
       -0.04345578 0.07975142 0.15350468 -0.2876925
0000d0 5f fe 63 3e 10 ac 63 be 0c 38 c9 3d 1c 2d ae be
       0.22265004 -0.22233605 0.09825143 -0.3401879
0000e0 52 cb cb 3c c3 77 de 3b e4 e9 ab 3d fd b6 ed 3d
       0.024877224 0.006789179 0.083942205 0.11607168
0000f0 62 5d 38 3e d1 8a 20 be ed 4b f6 3d 72 ba 99 3e
       0.18004373 -0.15677954 0.120262004 0.3002506
000100 37 d1 e1 bd 1d 7f 2b 3c 9e 9a a8 3c 4f fb b6 be
       -0.11026233 0.010467318 0.02058154 -0.35738608
000110 c9 f8 c5 be fe 53 7d 3d 6b 1c 6f be 92 77 c1 3d
       -0.3866637 0.06184768 -0.23350684 0.09446634
000120 ef b3 a5 be 23 ca 35 be 56 7d 5a be 4f b2 03 3e
       -0.3236384 -0.1775289 -0.21336874 0.12860988
000130 8d 59 0c bc 94 78 fc 3d aa 06 a4 be b8 e9 de 3d
       -0.008566272 0.12327686 -0.32036334 0.10884422
000140 21 01 0f 3d 95 9f 10 3e 13 64 52 3e 30 45 b3 bb
       0.034913186 0.14123376 0.20545988 -0.0054708943
000150 62 72 08 be 55 46 3e 3e 8f 77 2d 3d b9 53 f5 3d
       -0.13324884 0.18581517 0.042350348 0.119788595
000160 7a ae 9c be ff f2 04 3e 97 89 8e bd cc f2 9e be
       -0.30601865 0.1298332 -0.06959837 -0.31044614
000170 2a a2 1c be e5 65 f0 bd ec 20 da 3d 12 ea 54 be
       -0.15296236 -0.11738185 0.106508106 -0.20792416
000180 98 60 41 3e a8 8c 23 bc da 43 ad 3c 48 96 00 bd
       0.18884504 -0.0099822655 0.021150518 -0.03139332
000190 38 dd a1 3e 51 58 ce 3d 71 54 40 bd 84 ce 16 be
       0.3161409 0.10075439 -0.04695553 -0.14727217
0001a0 d2 54 3a 3e 9a a4 43 bd cc b0 97 3e da f2 67 3d
       0.18196419 -0.0477644 0.29627073 0.056628086
0001b0 11 57 df 3d 27 18 4d be 62 bb 0c be 56 ee 7a be
       0.109052785 -0.20028745 -0.13743356 -0.2450498
0001c0 17 91 b2 be 5b 78 65 3e ad e5 52 3d b4 5a f9 3d
       -0.3487632 0.22409193 0.051488567 0.121755034
0001d0 d0 70 68 3b 2f af 3b be a4 be 10 3d bc 91 87 be
       0.0035467632 -0.18328546 0.03533806 -0.26478374
0001e0 12 c3 a7 be 6d d1 df 3d ba 6f 09 3d df 67 f5 bc
       -0.32766014 0.10928617 0.033553816 -0.029956756
0001f0 6a df 04 be ff ef a3 bd 1a d4 3e 3e ac 58 de 3d
       -0.1297585 -0.0800476 0.18635598 0.108567566
000200 92 71 8f bd af 7d 1f bd 35 61 24 3d ee 3d 17 be
       -0.07004084 -0.03893822 0.040131766 -0.14769718
000210 d8 4b 5f 3e 83 96 6f be 4b cc a7 3e 47 19 d6 bc
       0.21806276 -0.2339726 0.3277305 -0.0261351
000220 de eb a4 3e b5 6a a3 bd c1 98 ee 3c 6b 58 a3 bd
       0.32211202 -0.07979337 0.029125573 -0.07975849
000230 0c 03 8e be d3 db 04 3e a1 4a f3 3e 2b ea 23 3e
       -0.277367 0.12974481 0.47517875 0.16007297
000240 66 18 2a be bb 37 25 be 9e 7c 9a 3e 5d 6f 47 3d
       -0.1661087 -0.1613454 0.301732 0.04869019
000250 be c2 90 3c d2 63 06 be 2e d4 6f be c4 cd 15 be
       0.017670985 -0.13124016 -0.23420784 -0.14629275
000260 11 86 24 be 96 83 40 bd d9 23 09 3e f8 9d 13 bd
       -0.16066767 -0.04700049 0.13392581 -0.036039323
000270 65 38 ef 3d 07 14 58 3d bf d6 e0 be 48 2c b4 bd
       0.11680678 0.052753475 -0.43913838 -0.087975085
000280 7e 9e 65 be 53 8c 1e be 35 9a 5f be 3f 14 a7 3e
       -0.22423741 -0.15483217 -0.21836169 0.32632634
000290 86 bb 29 3e a3 8c 0c 3d 2a fa 4b bd 74 e7 d6 bc
       0.16575441 0.03431381 -0.049799122 -0.026233412
0002a0 03 b3 0c 3e 29 93 c9 3e 83 40 8f 3e de a5 f4 bd
       0.13740163 0.39370087 0.27978906 -0.11945699
0002b0 c3 0e 9d bc 14 27 02 bb a0 ed c0 bd 4c a3 36 3e
       -0.019172078 -0.0019859718 -0.09420323 0.1783573
0002c0 f1 28 b5 be 78 ef 89 3e 9a 3f e7 3d 97 51 d5 3d
       -0.35382798 0.26940513 0.11291428 0.10415953
0002d0 b3 30 8f be 86 02 6e be 8e f6 65 bd aa 75 34 be
       -0.27966842 -0.2324315 -0.056143336 -0.1762301
0002e0 be d5 07 3d b1 c3 92 bd 55 19 90 3e 91 74 bf 3d
       0.033162825 -0.071662314 0.28144327 0.09348405
0002f0 34 ad 95 be d1 3d 4d be 9a 50 3d 3e 74 69 a6 be
       -0.29233706 -0.20043112 0.18487778 -0.3250233
000300 50 d9 99 3e 44 69 ff bd f4 72 a7 bd 9d bc b5 3d
       0.3004861 -0.1247125 -0.081762224 0.08873866
000310 8e da 05 3e 72 85 47 3e 0d 61 89 be 62 da 08 3e
       0.13071653 0.19484499 -0.26831856 0.13364556
000320 36 cc da bd da ac b2 bd d4 0d 32 3e 19 a0 66 be
       -0.106834814 -0.08724375 0.17388088 -0.2252201
000330 00 ee 8c be 79 61 bd bd 84 b5 72 be 1a 94 5c be
       -0.2752533 -0.09247107 -0.23702055 -0.21540871
000340 99 56 9c 3d a8 02 ee bd 94 38 77 3e 4f 75 ad bc
       0.07633705 -0.116216004 0.24142677 -0.021174101
000350 7a a2 5a 3e 11 ff 06 3e 45 bc d2 bd 27 73 00 be
       0.21351042 0.13183238 -0.10289816 -0.12543927
000360 96 d0 99 3d 53 f2 dc bd bf b5 62 3e f2 f1 90 3e
       0.07510488 -0.10788407 0.22139643 0.2830959
000370 3d a2 57 be 98 92 96 3e 91 85 a0 3e 74 09 2f 3d
       -0.21057983 0.29408717 0.31351903 0.042733625
000380 a0 93 76 be 25 94 b1 bc 9b e8 c1 bc dc b1 41 be
       -0.24079752 -0.021677086 -0.023670485 -0.18915504
000390 57 bf 9c be 95 de 86 3e 24 c9 02 be a4 4e 3b 3e
       -0.3061473 0.26341692 -0.12772042 0.18291718
0003a0 9a 48 82 3e 5f b8 a4 be 1b b4 3a be 73 fa 64 3e
       0.25446016 -0.32171914 -0.18232767 0.22361164
0003b0 d7 0f 30 3e a5 a4 6d bd 90 9d 9b 3d c4 6e 65 3a
       0.17193542 -0.058018345 0.07598412 0.0008752162
0003c0 a9 d3 b8 bd f9 23 1f 3e 9e b4 f0 be 29 88 a3 3e
       -0.09024746 0.15541066 -0.470128 0.3193982
0003d0 26 ab ea 3d 0f 6c dc 3d 4e 26 42 3e b2 61 1d 3e
       0.11458425 0.10762798 0.18959925 0.15369299
0003e0 7e 0a ab 3e 37 b8 b3 3e 97 3c a9 be 19 76 03 3e
       0.33406442 0.35101482 -0.3305404 0.1283802
0003f0 d1 ff 39 be 81 1d cb bd d6 c3 97 3e 55 d7 ac 3b
       -0.18163992 -0.09917737 0.29641598 0.005274693

net.net.0.0.bias f4 [256]
000000 f6 8d e4 3e d9 56 20 3e a6 c8 d2 3d c7 5a c4 3e
       0.44639558 0.1565813 0.10292177 0.38350508
000010 be 49 87 3e 27 af 9d be 59 5f d9 be 22 34 d6 bd
       0.26423448 -0.30797693 -0.42455557 -0.10459162
000020 c0 42 28 3e b9 05 c8 3d 79 12 0e 3d 28 f9 9f 3d
       0.16431713 0.097667165 0.034685586 0.07811195
000030 b1 e6 79 3e d0 3d 97 bc ac 16 ae 3e ee 20 ba 3c
       0.24404408 -0.018462092 0.34001672 0.02272078
000040 f3 de 5c 3d 19 44 11 3f 3f 52 be be fa 1a 04 3f
       0.05392356 0.56744534 -0.37172124 0.5160366
000050 9f e4 29 3e c1 8c 7d be fb 5a 07 bd 0c e8 b3 3e
       0.16591118 -0.24760725 -0.03304575 0.35137975
000060 22 b4 1f bf 79 3b 33 3c cd 50 89 3e cd f7 a7 be
       -0.62384236 0.010939472 0.2681946 -0.32806244
000070 6d 99 7c bc ce 0a a0 3c d3 fd 02 bf 37 02 ee be
       -0.015417439 0.019536402 -0.51168555 -0.46486065
000080 89 a8 95 3e 2e 51 4e 3e 9f f7 30 be 2e a4 07 3f
       0.29230145 0.20148155 -0.1728196 0.52984893
000090 5c 67 0e bf 3b 01 d2 3e 23 7b 79 3e 41 ef 98 3e
       -0.55626464 0.41016564 0.24363379 0.29870036
0000a0 ca 19 05 3f c5 9f 06 3f 2f af b7 3e 7a de 81 be
       0.51992476 0.5258754 0.35875842 -0.2536505
0000b0 a8 91 ea 3e bf f4 7f 3e d3 e6 84 be 99 b4 e4 3e
       0.45814252 0.24995707 -0.25957355 0.44669035
0000c0 4b 59 ab 3e b1 45 ba be e9 8e 21 3e 28 2c 88 3d
       0.33466563 -0.36381295 0.15777172 0.06649047
0000d0 c8 75 27 bf 21 ae a1 3d 0c 00 db bc 8f 62 1c 3e
       -0.65414095 0.078945406 -0.02673342 0.15271972
0000e0 78 ee b1 be 44 74 09 bf a9 44 10 be 0a 6b 60 be
       -0.3475225 -0.5369303 -0.14088692 -0.21915832
0000f0 08 57 bf 3e f5 95 68 3e 7a 7e 7e 3e 17 82 f6 3e
       0.37371087 0.22713454 0.24852934 0.48146126
000100 5f c7 cc bc 08 4c c7 be d2 b4 85 be 98 48 e7 bd
       -0.024997411 -0.38925195 -0.26114517 -0.11293143
000110 aa 2c 90 3e 62 36 1f 3f 82 9c ba be 21 0f e7 be
       0.28159076 0.62192357 -0.3644753 -0.4512873
000120 40 ac 0a 3e 14 7c 26 3e d4 f6 b1 bc 59 41 aa be
       0.1354227 0.1625827 -0.021724142 -0.3325298
000130 8a 43 14 3e c1 10 d8 be 5b f7 82 be c4 77 65 be
       0.14478889 -0.42200282 -0.25579342 -0.22408968
000140 45 35 6b be 5a 4a 06 3f 15 ed c1 3e 51 6c d7 be
       -0.2296954 0.524572 0.37876192 -0.42074826
000150 67 77 8a be e7 04 c4 be 1d 89 ed bd 49 2e 26 bc
       -0.27044222 -0.3828499 -0.11598418 -0.010142871
000160 76 54 14 3f 5c b6 d2 3e 4f 55 ab bd c7 7c 54 3e
       0.5794138 0.41154754 -0.08365881 0.20750724
000170 e0 9f 9b 3e b5 57 01 3f a0 a7 dd bd 91 0a 39 3e
       0.30395412 0.50524455 -0.108229876 0.18070437
000180 72 7a 7f be 16 ea ab 3d f6 b3 85 3e 2c d9 dc be
       -0.24949053 0.08394258 0.26113862 -0.4313444
000190 98 75 80 be 1f 79 11 bf c7 f6 ce bc db 4f b3 be
       -0.25089717 -0.5682544 -0.025264157 -0.35021862
0001a0 a6 c9 ae 3e c2 5f bd be db 67 f0 bc 31 c6 2c bf
       0.3413822 -0.3698712 -0.029346397 -0.67489916
0001b0 a1 37 ae 3e 3f e6 80 3e 58 99 e8 be 2a fb 71 bd
       0.34026816 0.25175664 -0.45429492 -0.05907742
0001c0 2c 9b d1 be 3a 77 4c 3e 74 ed 12 be 08 18 a2 3e
       -0.409387 0.19967356 -0.14348394 0.3165896
0001d0 a9 26 be be 32 65 f8 be b6 9a a4 3d 64 d3 b6 3e
       -0.3713887 -0.48514706 0.08037321 0.35708153
0001e0 a9 3a 62 bd cf cc ea 3e 34 fb 8d 3e 22 a4 f0 be
       -0.055231724 0.45859382 0.27730715 -0.47000223
0001f0 11 3b 0c 3e 99 7b d6 3e 92 64 0e be d3 8b 14 bf
       0.13694407 0.41891173 -0.13905552 -0.58025855
000200 63 44 2e be 98 9d f6 3d fe d8 90 bd 4c d7 03 bf
       -0.17018275 0.12041777 -0.07072638 -0.5150039
000210 dd fd 80 3e db ea 71 be e1 73 a2 3e d3 dc 9f 3d
       0.25193682 -0.23624747 0.31729034 0.07805791
000220 55 c6 96 3c 40 de 23 3e 6e 74 8c be fd 1f 66 3e
       0.018405119 0.1600275 -0.2743258 0.2247314
000230 32 f8 92 3e 0e 4d a3 bd 9d 30 a5 3e aa 81 b2 be
       0.28704983 -0.079736814 0.32263651 -0.3486455
000240 14 a1 c6 be a6 f1 c4 be f1 c4 17 3f f8 1b 83 3e
       -0.38794768 -0.38465613 0.59284884 0.25607276
000250 14 ea df 3e 61 12 ee be c3 a2 07 bf 36 28 fd be
       0.43733275 -0.46498397 -0.5298273 -0.4944474
000260 95 12 e3 be 1b 0d 15 bf 5f e0 3e 3d 94 a2 8f bd
       -0.44350114 -0.5822312 0.046600696 -0.07013431
000270 a6 0a 26 3e db 7a 43 3e dc bc 29 3f 86 08 61 3e
       0.16215 0.19089834 0.663038 0.21975908
000280 a1 78 c8 3e e3 f4 80 bd 50 60 de 3e ef c9 0f 3f
       0.39154533 -0.062967084 0.43432856 0.561675
000290 b0 45 74 be 99 68 37 be 92 59 e5 3e 2c 74 d0 3e
       -0.23854709 -0.17910995 0.447949 0.40713632
0002a0 e5 62 dc be 0b b6 12 3f b3 cc dc 3e 65 30 25 be
       -0.430442 0.57309026 0.43124923 -0.16131742
0002b0 60 3e 22 be 74 c1 c5 be ef 8b 88 3e e8 6d b3 3e
       -0.15844107 -0.38624156 0.2666926 0.3504479
0002c0 cc 5b 64 bd 52 16 b5 be 78 1a aa be c2 23 06 be
       -0.055751607 -0.35368592 -0.3322332 -0.13099578
0002d0 72 da 91 3e 95 22 23 3f c9 7a ba be 51 06 0b bf
       0.28486973 0.63724643 -0.36421803 -0.54306513
0002e0 70 9e 05 3f a1 a8 16 be f4 d6 43 be 96 fd 37 bd
       0.5219488 -0.14712764 -0.19124967 -0.044919573
0002f0 bb 35 c5 3d a1 82 e3 3e 83 11 8e 3e 8a 8f 9d be
       0.09629389 0.444356 0.27747735 -0.30773574
000300 10 3a 70 be 50 23 4c be d4 c5 d1 be cd 7c 0d 3f
       -0.23459649 -0.19935346 -0.40971243 0.55268556
000310 82 8a ae 3e 01 33 f9 be a0 08 0c bf 2d 0d 91 3e
       0.34090048 -0.48671725 -0.5470066 0.28330365
000320 59 84 50 3e c6 c4 bc 3e 1d 13 d1 be 58 7e 0e 3e
       0.20362987 0.36868876 -0.40834895 0.13915384
000330 de 96 1e be db 59 02 3c ec 41 0c 3f e7 e2 d2 be
       -0.15487239 0.0079559935 0.5478809 -0.41188738
000340 ec 68 56 3e 6b be d8 be ca dc 19 bd 77 ea ac 3e
       0.20938462 -0.42332777 -0.037564076 0.33772632
000350 8c 53 e8 3e eb 22 e2 3e 16 d7 c0 3c c4 0c 0d 3f
       0.4537624 0.44167265 0.023540061 0.55097604
000360 bd 9f c9 3e ce 7b 83 bd 4d d0 27 bd 09 c0 41 be
       0.39379683 -0.06420098 -0.040970135 -0.18920912
000370 51 ce aa 3d c1 0c 8c be bb 2f f3 3d c5 c2 be be
       0.08340133 -0.2735348 0.11874338 -0.37257972
000380 b7 a7 0d 3c 81 2d f3 3d e5 5a e3 3e 8a c2 92 3e
       0.008645943 0.118739136 0.44405285 0.28664047
000390 f9 40 08 bf d4 d0 a6 be 88 d2 bd 3e 80 2f f9 3e
       -0.5322414 -0.32581198 0.37074685 0.48669052
0003a0 d6 cc d2 be 16 01 dc 3e 58 d2 f6 be 72 49 86 3d
       -0.41171902 0.42969579 -0.48207355 0.06556977
0003b0 57 b4 49 be f1 64 07 bf 53 32 68 be 9f 9f c6 be
       -0.196977 -0.528884 -0.22675447 -0.38793656
0003c0 b8 99 f5 3e d5 4d a0 3d d2 77 dc be 2f de c0 3c
       0.4796884 0.07827345 -0.43060166 0.023543445
0003d0 39 24 89 3d c1 f4 88 be e0 b1 d4 3e 9d 19 19 be
       0.06696362 -0.26749232 0.41541958 -0.14951177
0003e0 f9 8f 0d bf 93 c7 c0 3e f6 33 aa bd 45 ae d7 3e
       -0.5529781 0.37652263 -0.08310692 0.42125145
0003f0 a5 25 95 3d 9b 19 55 3e 11 dd 8e be c0 6e 02 3f
       0.07282571 0.20810549 -0.27903035 0.5095024

net.net.1.0.weight f4 [256, 256]
000000 3a 89 77 bd 9b 08 4e 3d 1e 49 ed 3d 6c fc a7 3c
       -0.060433604 0.050301176 0.115862116 0.020506106
000010 6c cf 0c 3d a5 1a 62 bd 82 aa 88 bd bc ea d7 bc
       0.0343775 -0.05520119 -0.06673147 -0.026357047
000020 ef 52 5b bc b6 3f dc 3b 0e 1f da bb b2 3b b8 3c
       -0.013386472 0.006721462 -0.006656534 0.022489402
000030 73 97 8d ba b8 ca d9 bd ce 30 1c bc 52 aa 6e bd
       -0.0010802582 -0.10634369 -0.00953312 -0.0582679
000040 00 4e d0 3c c7 51 b6 3b 3f b4 64 3d 6b bf 3a 3d
       0.025427818 0.005563948 0.05583596 0.045592707
000050 ab 88 39 bd 18 d8 6c 3d 37 24 56 3d cc 51 e4 3c
       -0.045296352 0.05782327 0.05228063 0.027871035
000060 b8 2c 03 3d 79 fa 82 bc c5 6d 64 bd ac 65 07 3d
       0.03202507 -0.015988575 -0.055768747 0.033055946
000070 ed a5 42 3c df 64 7b bc 76 fe 65 3d fe fb 31 bd
       0.01188038 -0.015343874 0.056150876 -0.04345321
000080 a8 18 d6 3c b5 2f fc 3d 44 5a ce bc bf b5 93 3c
       0.026134804 0.12313787 -0.025189526 0.018031
000090 f8 f6 39 3c 7f 04 ac 3d c7 67 70 3c 1e fc 28 3d
       0.011350386 0.08399295 0.01467318 0.041256063
0000a0 88 3f 46 3d 99 e8 a9 bd b5 e0 2d bc 38 e0 9f 3c
       0.048400432 -0.082963176 -0.010612656 0.019516096
0000b0 52 36 d4 bc d2 58 96 3d d6 bb d5 3b 4a ff 15 3d
       -0.025904808 0.0734116 0.006522636 0.036620416
0000c0 35 03 6e bd 8e 47 9b bd 77 89 8d 3c c6 f5 8a bd
       -0.058108527 -0.07582007 0.017277462 -0.06785159
0000d0 fe 7c 72 3d 14 3c 7d ba 26 3f c3 3d 84 d4 51 3d
       0.059201233 -0.00096601364 0.09533529 0.05122806
0000e0 96 61 b8 bd 9a 6d 28 bd 16 2b 34 bd 2b 57 61 3d
       -0.09002988 -0.04112015 -0.043986402 0.05501477
0000f0 09 fd 27 3c cb a8 d8 3d 62 08 46 bc c0 13 d0 3c
       0.010253199 0.1057907 -0.01208696 0.025400043
000100 61 a5 ea bc 48 9f 90 3c e5 28 16 3a 35 6b 28 bd
       -0.028643312 0.017654076 0.00057281397 -0.041117866
000110 f6 03 36 bd f8 87 12 3d 1c 2a ed 3c c2 e3 5b 3c
       -0.04443737 0.0357742 0.028950743 0.013421001
000120 7b c1 e3 bd 9e d3 55 bb 3d eb d4 bc ee e6 68 3d
       -0.11120888 -0.0032627354 -0.025991077 0.056860857
000130 3b a5 b7 3d ac eb c8 bd 89 74 a7 3d 05 a9 0d 3d
       0.08967062 -0.09810576 0.08176524 0.034585018
000140 f3 3c c2 3c 1d 9b 35 bd d1 c6 33 bc 8b 34 2e 3d
       0.023710703 -0.04433738 -0.0109726945 0.042530578
000150 b2 31 c6 3d b8 5f 09 bb 64 1e e9 bb e6 52 03 bd
       0.096774474 -0.0020961594 -0.0071142185 -0.03206148
000160 14 1a b4 3c e0 08 8a bd fa 59 be 3b 25 3a 3c bc
       0.021985091 -0.06739974 0.005809066 -0.011488472
000170 1e d6 97 3c 6a c8 88 3d a7 c1 46 3c d8 54 4b bd
       0.018534716 0.06678851 0.012131131 -0.04964146
000180 d9 c8 f3 bc 87 85 2b bc f9 2f 42 3d d3 51 3f 3d
       -0.029758858 -0.010468847 0.04740903 0.046708893
000190 94 3a 92 bc d4 00 0b 3c c2 2f 80 3d 8c bb 23 bc
       -0.017850198 0.008484084 0.06259109 -0.009993445
0001a0 a3 75 07 bd 0d e3 80 bd bc f5 90 bd 78 62 2c 3c
       -0.03307117 -0.062933065 -0.0707812 0.010521524
0001b0 d2 c8 b1 bd 8d 3d 7f bd 14 ef d6 bb df fc 77 ba
       -0.086808816 -0.06231456 -0.006559262 -0.0009459983
0001c0 92 eb c6 3d 67 14 41 bc ee 37 d2 3c 49 10 44 3d
       0.097129 -0.011784649 0.025661435 0.047867093
0001d0 72 f8 99 3d 67 4d 8c bd 34 b6 47 bd be db 4c 3d
       0.0751809 -0.06850701 -0.048757747 0.05001425
0001e0 13 d4 c0 3d f0 ed 9c 3a 9b d5 0e 3d 11 98 10 bd
       0.0941545 0.0011972766 0.03487168 -0.03530127
0001f0 e4 da de 3b 06 57 40 3d b3 b6 a3 3c 33 e0 62 bd
       0.006800996 0.046957992 0.019984579 -0.055389594
000200 bd 88 20 3d c3 b5 5c 3d 14 86 00 3e ab 09 d0 bd
       0.039192904 0.05388428 0.12551147 -0.10158094
000210 d8 00 71 3b 7c f6 eb bc 61 62 10 bd 91 07 7d bc
       0.0036774185 -0.028804056 -0.03525007 -0.0154436985
000220 b2 46 90 bc 16 0e 6f 3d af 8d b9 bb 27 ef 8c bc
       -0.017611835 0.058363043 -0.005662642 -0.01720388
000230 1e ab f3 bd a0 42 0d bd da 92 87 3b 48 c0 1a bd
       -0.118978724 -0.034487367 0.004137379 -0.03778103
000240 3b 8b 05 3b 03 96 83 3d 4a 51 11 3e 1a 16 ca bc
       0.0020377177 0.06425097 0.14191166 -0.024668742
000250 3c 90 92 bd 9a 86 59 3d 33 2c 99 bb 03 0a 2f 3c
       -0.07156417 0.05310688 -0.0046744584 0.010683539
000260 44 cc c8 bd 2b bb 5e bd bd 50 0f 3d a5 8c ad 3b
       -0.098045856 -0.054377716 0.034989107 0.005296307
000270 36 24 9a bd 2d c7 fc 3c 4b 26 b6 bc 96 9b be 3c
       -0.07526438 0.030856693 -0.022235056 0.023267549
000280 76 ee 52 bc 14 3e 00 bc 8c aa 1c bd 75 d1 56 bd
       -0.012874236 -0.007827301 -0.038248584 -0.052445848
000290 fe a4 91 bd 8d 52 67 3c 46 cb e9 bd 7e bd 19 3c
       -0.07111548 0.014118803 -0.114157245 0.009383557
0002a0 a3 e9 da bc e0 c5 b6 3b 63 87 ab bc 65 1e 36 3c
       -0.026722735 0.0055777878 -0.02093858 0.011115645
0002b0 a4 02 a5 3b bb 10 8e bd 52 93 5e 3c 11 87 05 bc
       0.005035715 -0.06936785 0.013584929 -0.008149878
0002c0 1a 00 88 3c 36 e0 2b be 83 bb 7e 3d f2 31 2b 3d
       0.01660161 -0.16784748 0.062190544 0.04179568
0002d0 e7 42 14 3d 7b 24 e5 3c 18 b7 0f 3d 14 d0 eb bc
       0.036196616 0.027971497 0.03508672 -0.028785743
0002e0 59 81 38 bd 81 1c 1a 39 24 ce 36 bd e2 16 7c bd
       -0.04504523 0.00014697203 -0.044630185 -0.06154526
0002f0 d5 2c bf 3d 10 88 5f bd cf 14 e1 3c bf 61 94 bc
       0.09334723 -0.05457312 0.027475743 -0.018113015
000300 dd 42 d2 3c f9 13 a7 bd 28 53 b7 3b 82 90 88 bd
       0.025666649 -0.08158106 0.00559463 -0.06668188
000310 5c 6b df bd 0c 65 b2 bc 66 6c 91 3d e5 78 af bc
       -0.10909149 -0.021776699 0.071007535 -0.021419952
000320 70 79 b7 3d 50 56 3f 3d d5 d6 30 bd fa 68 ac 3d
       0.08958709 0.046713173 -0.04317363 0.0841846
000330 3d cd a3 3c 4a f6 16 bd bb 7b cb bc 1c b3 0e bd
       0.019995326 -0.036855973 -0.024839273 -0.03483878
000340 6e f2 34 3d 0c 90 f3 bd b1 b3 59 3d 44 11 e1 3c
       0.04417651 -0.11892709 0.053149883 0.027474053
000350 f4 de 2d bd 01 e2 d4 3c f7 07 7a 3d a7 7e 86 bd
       -0.042448953 0.025986673 0.061042752 -0.06567126
000360 29 a3 7b 3c 2e bf 82 bd 56 29 99 bd 8e f7 25 3d
       0.015358725 -0.06384121 -0.07478587 0.04051929
000370 14 af 1a bd 22 82 70 3d d1 a0 4d 3c ca ff 70 bd
       -0.037764624 0.058717854 0.012550549 -0.05883769
000380 d9 a2 d2 3c d3 fb 25 bc af 7b e7 3c d6 50 33 3d
       0.025712417 -0.01013084 0.02825722 0.043778263
000390 89 77 ab 3c 4f de a8 3b 0d 2a 47 bb 45 6d 4e bd
       0.020931022 0.0051534544 -0.0030390054 -0.050397176
0003a0 1b d5 01 bd c5 6e 72 3c e9 41 dc bc 7f 29 1a 3b
       -0.031697374 0.014796917 -0.026886897 0.0023523269
0003b0 da e1 92 3c df 66 b4 bc d6 cf 04 bb 23 d8 95 bc
       0.01792996 -0.022021709 -0.0020265481 -0.018291539
0003c0 b8 82 ad 3d b0 c6 98 bd 48 08 7b bd fe e2 55 bc
       0.08472198 -0.07459772 -0.061287194 -0.013054607
0003d0 6e 3d 4d 3b d7 53 29 3d 41 46 40 3d e1 3f 81 3d
       0.0031317133 0.04133972 0.046942 0.06311012
0003e0 41 c0 ae 3c 24 36 bf 3b 1c 9d cc bc 24 44 53 3b
       0.021331908 0.0058353115 -0.02497726 0.003223666
0003f0 c1 09 10 3d 5c fc 38 bd c4 3e 96 3d e2 0a ed 3c
       0.035165552 -0.045162544 0.0733619 0.028935853

net.net.1.0.bias f4 [256]
000000 7e 4f 0d be f2 7c 44 be ff 0c e3 bb d7 84 bb 3d
       -0.13799855 -0.19188288 -0.0069290395 0.091561966
000010 b6 77 5f 3b 4a a0 19 3e a8 92 e4 bd 5d f7 12 bc
       0.0034098453 0.15002552 -0.11160785 -0.008970109
000020 90 7e 87 3d 6a 7f 2e bc 57 aa f2 bc f6 f1 cc bd
       0.06615937 -0.010650495 -0.02962224 -0.10007088
000030 bb 0a 0c be 0e 9f c5 3c 17 c1 c9 bd e5 07 f0 3c
       -0.13675968 0.024123695 -0.09851282 0.02930064
000040 a9 db ea bc b6 53 a2 bd 36 f4 7a bd ca 95 e7 3d
       -0.028669195 -0.07926123 -0.061268054 0.11307867
000050 68 a9 61 3d 1b 1e 88 3d 21 d0 bf 3d c3 dc 23 3d
       0.0550932 0.06646367 0.09365869 0.040005457
000060 eb 0e c6 3d b1 3a 1f bd fd fb 9b bd d2 5d a3 3d
       0.09670814 -0.03887433 -0.07616422 0.07976879
000070 0c 12 e6 bc e2 a7 60 3d 38 b2 81 bd 05 6e c5 bc
       -0.028084777 0.054847606 -0.06332821 -0.024100313
000080 ab 37 3d 3b 53 69 9a bc 83 36 84 bd fd f0 91 bc
       0.0028872292 -0.01884905 -0.0645571 -0.017815107
000090 8b 2b 2d bd ca b3 93 bc 86 a6 77 3d 3a 5a 7f bd
       -0.042277854 -0.018030066 0.060461544 -0.062341906
0000a0 a3 76 b2 bd 4e 2e 33 3c e2 b9 b8 bd c3 2b 74 3d
       -0.087140344 0.010936333 -0.09019829 0.059612047
0000b0 54 de 70 3d 31 af e6 3c 7f 1f 3f 3d f9 ef 9d 3b
       0.05880578 0.02815971 0.046660896 0.0048198667
0000c0 2a 8f e1 3a cf 6a b4 3c 31 05 62 bd d8 0f 16 bd
       0.0017208804 0.022023587 -0.055180732 -0.036636204
0000d0 5d 1a b3 3d 13 7c 6a bd 55 29 db bc af ca bb bc
       0.08745263 -0.057247233 -0.026753107 -0.022923796
0000e0 f4 36 cf bd 87 36 ce bc ff 84 32 3b 85 ed 23 3c
       -0.10117903 -0.025172485 0.0027239916 0.01000536
0000f0 e2 c1 b8 3c b7 11 1b 3e e1 a3 5b bd 7b d7 c1 bc
       0.022553388 0.15143476 -0.053623084 -0.02366232
000100 f0 aa 8f bd 6e 61 84 3d 0c 24 18 3d 54 ef 3d b9
       -0.070150256 0.06463896 0.037143752 -0.00018113601
000110 50 38 a2 3b 1d 24 1b 3c 84 1d 98 bb d0 49 f2 ba
       0.0049505606 0.009469059 -0.0046421904 -0.0018485133
000120 e8 f5 1f bc ad 88 16 3e 21 7c f8 3b d6 26 0e be
       -0.009763218 0.14700575 0.0075831567 -0.13882002
000130 79 a3 d8 bc c0 45 f6 3c 28 95 8c 3d 64 0e 03 be
       -0.026445137 0.030062556 0.06864387 -0.12798458
000140 61 0a 08 be d3 ed fc 3d 3c 92 33 3d 75 98 a0 bb
       -0.13285209 0.12350049 0.04384063 -0.004900987
000150 e1 c0 c3 3d ba 3a 3b bd fd 9e 77 3d ae 9b 8d 3d
       0.09558273 -0.045710303 0.060454357 0.06914459
000160 78 2d 36 bd 77 f9 d2 bd 75 af 21 3d e4 28 08 be
       -0.044476956 -0.10301488 0.03947397 -0.13296849
000170 26 00 3f 3d 57 9d bc 3d e7 89 a5 3b fe 29 b0 bd
       0.046631 0.09209698 0.0050518396 -0.086017594
000180 f9 41 bf bd 40 b0 41 3e e7 af 9a bd c6 d0 1c be
       -0.09338755 0.1891489 -0.07553082 -0.15314016
000190 16 da bc bc 27 8f 6c 3d 2f c3 d9 bc 37 f3 da bc
       -0.02305321 0.05775371 -0.026582329 -0.026727302
0001a0 9b 1c cc bd 13 5f 0e bb ac ad 6e 3d a6 fb 1c bc
       -0.099663936 -0.002172415 0.058271095 -0.009581482
0001b0 02 d1 76 bd 5a 5e 58 bd 51 a4 ec bd 37 f6 55 3d
       -0.06025792 -0.052824356 -0.11554778 0.052236762
0001c0 f6 51 08 3d 4b 76 b5 3d c4 bb 70 bd e5 9c cc bc
       0.03328129 0.08860453 -0.058772817 -0.024977157
0001d0 93 8d 35 3e 8a 68 02 3e 57 ec 97 bd 39 27 b6 ba
       0.17729788 0.12735191 -0.07418125 -0.0013897187
0001e0 2c d5 b1 3c 8e 81 bb 3d da 7a 24 bd b6 a0 dd 3b
       0.021708094 0.0915557 -0.040156223 0.006763543
0001f0 f5 0f a5 bc 78 71 4e bb 98 71 4a bc e4 07 ef bd
       -0.02014921 -0.0031500738 -0.012356184 -0.11671427
000200 42 94 04 3c 68 27 bd 3d 3e fb 9b bd 03 67 bf bd
       0.008091988 0.09236032 -0.0761628 -0.0934582
000210 bc 10 8a bd 37 07 a0 bc 59 b5 c5 3b 61 4b 98 bd
       -0.06741473 -0.01953469 0.006033581 -0.074362524
000220 53 75 2e bd 80 6c 0f bd 68 85 15 3d cc 61 51 3c
       -0.042592358 -0.035015583 0.03650418 0.012779664
000230 9b ec 22 bd 36 15 8f 3d 58 2d 6e 3d 56 ab 8c bc
       -0.039776426 0.069864675 0.058148712 -0.017171543
000240 9a 0e 4b 3c 69 57 79 ba e6 a6 8e 3d ec a5 f4 b9
       0.012393618 -0.00095116213 0.06965427 -0.00046662928
000250 30 7b c8 3c 12 9d 2f be 63 3b aa bd 82 ee 9a 3c
       0.024472803 -0.17149761 -0.08312108 0.018912558
000260 fb 5a 11 bd b1 e5 a2 bd 32 c2 bb 3d af b2 c5 bc
       -0.035487156 -0.079539664 0.09167899 -0.024133055
000270 15 7e 9a bc eb 0e ad 3c 36 7b ad 3d 51 0f d7 3c
       -0.018858949 0.021125278 0.08470766 0.02625242
000280 b1 74 24 bb 2d 34 3c 3d 15 45 89 bc db 59 b6 bd
       -0.0025093968 0.045948196 -0.016756574 -0.08903857
000290 c9 68 f5 bd 5e be ae bc 19 9e c5 3d 7e 98 e6 bc
       -0.11982877 -0.021331009 0.09649295 -0.028148886
0002a0 23 4c ae bb b9 3b a6 3c cf 52 a4 3d b5 9f ed 3d
       -0.005319135 0.02029215 0.08023607 0.11602727
0002b0 b5 94 09 bb 64 90 e4 bd a2 bd 58 bd 8b a6 b7 bd
       -0.0020993177 -0.11160353 -0.052915223 -0.089673124
0002c0 3c 1a a6 bd 73 bf 02 be 39 f5 49 bd 05 ea 90 3c
       -0.081104726 -0.12768345 -0.04930613 0.017689714
0002d0 4d 54 42 3c c9 5d 3f bd 66 da 0a be 52 20 19 3d
       0.011860919 -0.0467203 -0.13559875 0.03738434
0002e0 61 2c d0 bd a8 1e aa bc e3 87 cb 3d 9f 28 18 3c
       -0.101647146 -0.020766571 0.09938028 0.009287029
0002f0 31 1b ab bb 16 1d 31 bd 8f 35 27 3d 5e 71 3d bb
       -0.0052217473 -0.04324063 0.04082256 -0.0028906683
000300 4e 2c 67 3d 90 58 e6 bd f5 9b c9 bc 8b ea a4 bc
       0.056438737 -0.11247361 -0.024610499 -0.02013137
000310 bb 66 0c 3e a8 d8 a0 3d 8a 81 26 3d fc a4 29 3e
       0.13711064 0.07853824 0.04065088 0.16566843
000320 38 a5 a9 3c 01 ca 08 3e a6 99 ad bc 34 d4 0a 3e
       0.020708665 0.13358308 -0.02119143 0.13557512
000330 d1 10 52 bd 1d dd e7 3c a6 43 95 bc 83 cf d4 bd
       -0.05128557 0.028303677 -0.018220734 -0.10391142
000340 34 3e c9 bd 3d d5 64 3d e7 8f 66 3e 69 5f 81 3c
       -0.098263174 0.055867422 0.22515832 0.015792565
000350 91 44 dc 3d ca ca 1b 3d 44 f6 d8 bd 45 20 5a 3d
       0.107552655 0.03803519 -0.105938464 0.05325343
000360 66 48 9f bd d2 d8 96 3d aa a3 f7 3c 97 11 0c bc
       -0.07777481 0.07365574 0.030229408 -0.008549116
000370 13 cd 0d 3d 1c e0 18 bd 19 bb 84 bd ea 83 a0 3c
       0.034619402 -0.037323102 -0.064809985 0.019594152
000380 1e 17 7d 3d d5 d1 a0 3c f2 ad f8 3d 5d 76 f1 3d
       0.061789624 0.019631306 0.121425524 0.11790154
000390 dc 74 07 3c 16 97 ad bc d6 59 dd bd a2 b0 f1 3d
       0.008267608 -0.021190207 -0.108081505 0.11801268
0003a0 ea df 09 3d dd d4 57 3d f3 7a d9 bc e0 87 3b 3e
       0.033660807 0.052693237 -0.026547885 0.18313551
0003b0 1e db 19 be d2 86 51 3c 24 ab cf bd a3 42 31 3d
       -0.15024993 0.012788491 -0.10140064 0.04327644
0003c0 43 eb 83 3d ab 47 8b 3d b4 c8 ae bd 6c 83 71 bd
       0.06441357 0.06800779 -0.08534375 -0.058963224
0003d0 6e 91 f4 3d 46 d4 d2 bd a6 7a 15 be 23 d6 14 3c
       0.11941801 -0.10294394 -0.14597568 0.009084257
0003e0 7f b1 9a bc 4e 78 c4 bb f6 5b 02 be e4 23 1a 3e
       -0.018883465 -0.0059957867 -0.12730393 0.15052754
0003f0 c5 bd 45 3b 9a 48 a2 bd 35 b2 b6 3b 46 ff ca 3a
       0.0030172926 -0.07924004 0.005575443 0.0015487454

net.net.2.0.weight f4 [256, 256]
000000 fc 63 53 3c 03 92 ed bb 25 65 8b bb a8 44 c8 3c
       0.012902256 -0.007250072 -0.0042540007 0.0244468
000010 20 4f 47 3c 33 13 2e 3c 76 3c 02 bc 52 2b 9c ba
       0.012164861 0.010624695 -0.007948985 -0.0011914766
000020 3d f9 b1 3b 32 51 c9 3c f7 f5 e5 bb 19 8c b0 3b
       0.005431323 0.02457485 -0.0070178467 0.0053877947
000030 63 5d c1 3b b4 6d 37 3d 22 5b 0d 3c ae 9e 38 3c
       0.005901025 0.044782355 0.008627685 0.011268301
000040 15 68 a2 bb 0e 2f a5 39 f3 e4 98 39 46 37 b6 bb
       -0.004956255 0.0003150631 0.0002916228 -0.0055607883
000050 26 32 8d 3c 68 a9 34 bc 88 a5 7b 3b 06 77 70 bc
       0.017235827 -0.011026718 0.0038398225 -0.014676815
000060 65 04 cc 3b 60 db 0b 3c f8 35 ea 3c 04 58 94 3b
       0.00622611 0.00853619 0.028590187 0.004527094
000070 e0 a5 9e 3b 76 44 0d bb 15 35 31 3c 99 69 b6 ba
       0.004841551 -0.0021555698 0.010815878 -0.0013916969
000080 ac c2 31 3c 42 67 d5 bc e2 97 dc bb 89 8d 39 3c
       0.010849636 -0.026050214 -0.006731973 0.0113252485
000090 f9 b7 fb 3b 56 7b 70 3c 7b 2a f7 3c 3f e1 9d 3c
       0.0076818434 0.014677843 0.030171623 0.019272445
0000a0 41 e9 75 3c 69 97 2a bd da f6 9d bc 8d 01 8f 3c
       0.015009225 -0.041648302 -0.019282747 0.017456794
0000b0 4a bc a4 bb d3 5a 0b 3b 45 3f a0 bc a8 4a 4b 3c
       -0.0050273286 0.0021263852 -0.01956142 0.012407936
0000c0 fe f8 1f 3b c2 b9 8b bc 42 75 db bc 65 fd de bc
       0.0024409886 -0.01705635 -0.026789311 -0.027220437
0000d0 c7 5e a8 3c fe 9b 8f bc 13 31 b2 bb f8 44 92 bc
       0.020553006 -0.017530438 -0.005437979 -0.017855152
0000e0 68 2a f9 bb a3 63 53 3c a5 c4 2b bb f1 d0 38 bc
       -0.007603932 0.012902173 -0.0026209739 -0.011280284
0000f0 36 9f 15 bb 19 8e 83 3b 8d 99 27 3d 4c f2 09 bb
       -0.0022830493 0.004014742 0.04091792 -0.0021048961
000100 50 da 16 3c 3f 2e a0 bb 5c c9 48 3c 93 da 99 bc
       0.009207323 -0.0048883255 0.012255039 -0.018780982
000110 f8 8e 53 3c b5 fc 8a bc 1e e2 64 3c 72 d9 46 3b
       0.012912504 -0.016966203 0.013969926 0.003034201
000120 60 54 c3 bc ce ac 22 bc c6 11 a1 3a df 44 a3 3c
       -0.023843944 -0.009928895 0.0012288622 0.019930301
000130 4d 26 e4 3b fe c8 9a bb 09 9d 17 3d 8b ab 1e bc
       0.0069625736 -0.004723667 0.037014995 -0.009684454
000140 38 eb 4f 3c 28 cb 57 bc bf 8b 09 bc 11 8c 2d bb
       0.012690358 -0.013170995 -0.0083951345 -0.002648119
000150 14 7e 01 bd 35 08 f8 3c 16 d8 4c 3c fc 9d 78 3c
       -0.031614378 0.03027735 0.012502691 0.015174385
000160 91 b8 20 3c 3a 03 70 bc df 46 48 bc 2a b4 e7 bb
       0.009809629 -0.014649207 -0.012223928 -0.007071038
000170 cb 17 5d 3c a3 77 96 3b cc 90 53 bc 68 d1 d2 bc
       0.013494442 0.0045918985 -0.01291294 -0.025734618
000180 dc b7 9b 3c 99 f7 01 bd e3 2a 06 3d 71 c3 81 3b
       0.01900857 -0.03173027 0.032755744 0.003960066
000190 04 06 90 bb de 27 0f bd db 31 4f 3c ea eb ef 3b
       -0.0043952484 -0.03495013 0.012646164 0.0073218243
0001a0 2b 97 c1 bb ab c9 14 bd b7 65 89 3c f7 b9 67 bc
       -0.005907913 -0.036325138 0.016772134 -0.014143459
0001b0 d6 f1 d4 bb 79 bb fe 3b 41 c4 81 3b 16 00 e2 3c
       -0.0064985557 0.0077738133 0.003960163 0.027587932
0001c0 e7 83 96 bb 58 0f d1 3c 1b c1 53 bc 80 7b 11 bc
       -0.0045933607 0.025520012 -0.012924458 -0.008879542
0001d0 89 a7 be 3a d2 fd 9e 3c fb 77 a7 bc dc d4 10 3b
       0.0014545779 0.01940814 -0.020442953 0.002209953
0001e0 18 e5 25 3d e6 d1 ce 3c 76 d6 cc bc 35 f3 90 bb
       0.040501684 0.025246572 -0.025004607 -0.004423524
0001f0 7a 99 91 bc 52 3c ca ba 39 5b 78 bc f1 62 e7 3b
       -0.017773379 -0.0015429354 -0.015158468 0.0070613553
000200 5e 1b c4 3b 25 39 54 3c de f7 48 bb 2c b9 97 b9
       0.0059847077 0.012953077 -0.0030665318 -0.00028938928
000210 cb 5c 60 bc b1 d2 d0 3c 95 26 03 3c bd 4b e3 3c
       -0.013693999 0.02549109 0.008004804 0.027746076
000220 32 f4 22 bc 87 ea e8 bb b7 b6 a5 bc cb 76 3b bb
       -0.009945916 -0.007108036 -0.020228727 -0.0028604742
000230 58 d4 2a 3c 3b e8 f8 b9 8d dd 18 bc a3 1b 62 ba
       0.010426603 -0.0004747527 -0.009330166 -0.0008625334
000240 8e f7 e6 3b f6 84 b7 3c ce d3 c9 3a 86 c2 b0 3c
       0.007048554 0.022402268 0.0015398206 0.021577131
000250 0f d0 a4 bc a3 bb 01 bc 88 76 64 3c bf c7 31 3d
       -0.020118741 -0.007918271 0.013944276 0.043403383
000260 5f c1 f4 3c b0 7f 1b bc ac 33 34 b8 6c ca 32 bb
       0.029877363 -0.009490892 -4.2963467e-05 -0.0027281297
000270 44 af da 3b c9 6c 7f bc e3 bc 69 3b ea 4c 2c 3c
       0.0066737253 -0.015589901 0.0035665564 0.010516385
000280 60 3f ce 3c 0b 01 7a 3d 50 f9 ed 3a c7 50 23 bd
       0.025176704 0.06103615 0.0018155966 -0.039871957
000290 54 ad 1e bc 6f 53 61 bc 32 04 a3 3c a2 ee b5 3c
       -0.009684879 -0.013752802 0.019899461 0.022208516
0002a0 c2 46 f4 3c 1e 1c 06 bc 86 57 6b 3c 4a 4c 09 3c
       0.029818896 -0.008185415 0.014364129 0.008380005
0002b0 79 c7 da bc c7 3f c7 3c 56 58 55 bc 90 34 1a bc
       -0.026706444 0.024322404 -0.013021549 -0.009411946
0002c0 80 41 0f bd 80 e4 b3 bb b2 ee 93 bb 4d 37 ea 3b
       -0.034974575 -0.005489886 -0.0045145387 0.0071477056
0002d0 78 7d e7 ba 47 bf 18 bc 94 d9 f4 3b 11 65 a2 bc
       -0.0017661294 -0.009322948 0.0074722264 -0.019823583
0002e0 93 ed 4b 3c a4 e1 90 3c ca a8 85 bb 63 bb cb 3c
       0.012446779 0.017685719 -0.004078959 0.024869626
0002f0 aa 57 79 3c 22 5b 53 3c bc 03 b3 bb b8 e0 af 3c
       0.015218655 0.012900146 -0.0054630917 0.021469459
000300 cf 37 97 3c ed 00 56 3a f0 8c 4e bc 37 06 87 bb
       0.018459229 0.000816359 -0.012606844 -0.004120614
000310 ea df 02 bc 88 ac c6 bc e5 3f a1 3b 17 18 61 bc
       -0.007987956 -0.024252191 0.004920947 -0.013738654
000320 43 03 d8 3c 69 33 e7 b9 2e 1e 12 bc f3 86 94 3c
       0.026368743 -0.00044098057 -0.008918328 0.018130755
000330 00 f6 a8 bc 53 21 84 bc 13 89 55 bc 8d 7d 1d 3d
       -0.020625114 -0.016129171 -0.013033169 0.038449813
000340 bf da c0 3b 70 61 a7 bc 3c 3e 31 bc d6 26 93 3c
       0.0058854516 -0.020432204 -0.0108180605 0.017962854
000350 fc 45 88 3c ab c5 88 bb 3f 52 dd 3b 7d f3 fd bb
       0.016634934 -0.0041739545 0.0067541893 -0.0077499733
000360 c3 ea 7c 3c ea 21 70 bc b5 11 e1 bb 2f 29 57 3c
       0.015436831 -0.014656523 -0.006868566 0.0131323775
000370 ec ec 4a bc df a7 1a bc ab 09 d4 3b ae 58 48 3c
       -0.012385588 -0.009439438 0.006470879 0.012228174
000380 f7 87 3f ba 16 13 fd 3c c6 41 82 bc 0f 4a 38 3a
       -0.0007306332 0.03089289 -0.015900504 0.00070300786
000390 49 63 95 3c 33 f7 2d 3c 5a 58 62 3c 97 cb 49 3b
       0.01823582 0.010618019 0.01381501 0.0030791515
0003a0 c3 34 43 bc b3 76 07 3c e1 82 0c bd 1e 84 61 bc
       -0.011914435 0.008268046 -0.034304503 -0.013764409
0003b0 60 b5 87 bc f3 30 af bc f8 79 11 bd ff ef b2 bc
       -0.016565979 -0.021385645 -0.03551671 -0.021842955
0003c0 b4 6c 66 3c 20 2b fd 3b 0b a5 26 bc 66 8e be bc
       0.014064003 0.007726088 -0.010171185 -0.02326126
0003d0 27 b5 b4 b9 7f ac 87 3c f0 33 81 bc 0f d8 e3 3b
       -0.00034467244 0.016561745 -0.015771836 0.0069532464
0003e0 45 7f e4 bb 9c 7a bf 3b 5b 81 b9 bb 3c 0c 37 3c
       -0.0069731795 0.0058434736 -0.0056611723 0.0111723505
0003f0 a0 c1 72 bb 9d c3 9f 3c 9d 6c 60 3c 9b 36 4e 3c
       -0.003704168 0.019502455 0.01369777 0.012586261

net.net.2.0.bias f4 [256]
000000 db ab 50 bd bf a1 64 3d b0 c0 11 bd 6f 91 c1 3c
       -0.050945144 0.055818316 -0.03558415 0.023628918
000010 78 87 a5 3b 49 bc 13 3e 41 08 e7 bd 9e 8f ad 3d
       0.0050515495 0.14427294 -0.11280871 0.084746584
000020 85 b0 8b 3c 9a 23 5a bd 40 46 c5 3d 36 e9 9a 3d
       0.017051945 -0.05325661 0.0963254 0.07564013
000030 64 f0 b9 bc 1f a6 24 3d 01 88 d4 bc c3 d5 1e bd
       -0.022697635 0.040197488 -0.025943758 -0.038778078
000040 60 7f f5 3c 2e 8d 11 bd 32 94 a1 bd 61 06 fa bc
       0.029967964 -0.03553503 -0.07889594 -0.03052062
000050 ec ea 54 bc 8d c2 55 3d 05 bd 5a 3d 6a 8f 0f be
       -0.012995463 0.05218749 0.05340292 -0.14019552
000060 71 e6 d9 bc 3c 8f a2 3d 15 d2 5b 3e cc 43 0d bd
       -0.02659914 0.07937476 0.21466859 -0.034488484
000070 67 d3 9c 3d 25 2b 71 3a db 17 b6 3d af c3 0f bd
       0.07657509 0.00091998494 0.08891269 -0.035098728
000080 d8 6a 35 bd a9 30 83 bc 01 44 61 3d 5d a9 11 bc
       -0.044291347 -0.016014414 0.054996494 -0.008890477
000090 bb 84 e1 bd 7e 9b e0 3d e7 cb 9f 3d 16 7d 14 3c
       -0.110116445 0.10967158 0.07802563 0.009063026
0000a0 cd 01 c8 3c 1d ae 07 bd 48 02 9b 3d 1b 97 96 bc
       0.024414921 -0.03312503 0.075687945 -0.0183826
0000b0 a6 d0 30 be df d6 0b bd 38 9c e4 bd fd b6 14 3b
       -0.17267093 -0.034140464 -0.11162609 0.0022692077
0000c0 4f 85 88 3b 77 8e 93 bd 83 09 d1 bc 03 45 c3 3d
       0.0041662822 -0.072049074 -0.02551723 0.09534647
0000d0 a7 72 90 3d c0 bd 59 3d bd 37 6a bd 8e db 46 3d
       0.07053118 0.053159475 -0.057182062 0.048549227
0000e0 4a f4 a4 3d 65 6b b3 bd 47 de c5 3c 5d 6c 8b 3d
       0.08054407 -0.08760718 0.024153842 0.06807778
0000f0 c5 70 08 bb 07 26 5d 3d a0 b4 32 be 3e 39 e8 3c
       -0.002081917 0.053991344 -0.17451715 0.028347608
000100 fe b6 d3 bd f9 eb c1 3d 1b f3 3e bd 1e b0 e5 bc
       -0.10337637 0.09468836 -0.046618562 -0.02803808
000110 89 b9 0e be c9 c3 77 3d c7 4c de 3c a7 ec 00 3e
       -0.13937964 0.06048945 0.02713622 0.12590276
000120 22 4a 07 3d d2 fc b8 bd e0 80 83 3d 87 d5 4b 3d
       0.033029683 -0.09032597 0.06421065 0.049764182
000130 61 79 b0 3d a7 af d1 bc 85 1a 3b bc 75 36 50 3d
       0.08616901 -0.025596453 -0.011419897 0.050833184
000140 41 aa 67 3d 66 6e 2a 3d aa 49 87 bb c7 7c 54 3d
       0.05655885 0.04160919 -0.0041286545 0.05187681
000150 66 c1 9f 3d 76 70 e9 bd 5b 0b 53 3d 3d 21 e8 3d
       0.0780056 -0.11398403 0.0515245 0.11334465
000160 1f 57 8a 3d 41 fd 5a 3d 0c f5 47 3e 4e 2c c1 3a
       0.06754898 0.053464178 0.19527072 0.0014737935
000170 f9 e9 2e bd 7d 36 a8 bd 3a 66 b9 3d 53 a5 75 bc
       -0.042703602 -0.08213518 0.09052701 -0.01499303
000180 21 51 b3 3d 9a ea d7 bb ca 9f c7 3d 73 c0 48 3d
       0.087557085 -0.006589246 0.09747274 0.04901166
000190 0c 84 20 3d 4a a5 c3 3d 90 69 e3 3c ee 50 70 3d
       0.03918843 0.09553011 0.027760297 0.05867093
0001a0 54 51 7b 3b 47 c7 0f bd d7 44 d3 3b a5 1f b8 3d
       0.0038348036 -0.035102155 0.0064474153 0.08990411
0001b0 a5 99 a4 3d 34 41 8c bd 3e 18 92 3d 46 5d 58 3d
       0.08037118 -0.06848374 0.0713353 0.052823327
0001c0 e2 29 7c 3d bf 21 94 3d ad 15 31 3e bf fd 98 bd
       0.06156338 0.07232999 0.17293425 -0.07470273
0001d0 58 ae a4 bd bb 3a 1b 3d 61 32 31 bc 7b e6 0e bd
       -0.08041066 0.037897807 -0.010815234 -0.034887772
0001e0 62 dc 3a 3d 06 1a 7e 38 1c 69 56 3d 2f 75 21 3e
       0.04562033 6.0582555e-05 0.052346334 0.15767358
0001f0 f0 3f ee 39 c5 99 ba 3d 47 ed 42 bc eb a4 f5 bc
       0.00045442535 0.091113605 -0.011897392 -0.029985866
000200 03 3b cd bc 39 01 ea 3d 90 62 5f bd 48 c5 06 3d
       -0.025052553 0.114260145 -0.054537356 0.032902986
000210 f4 1c 53 be dd 8c 90 3d ae 75 58 bc 05 f9 ee 3c
       -0.20616513 0.070581175 -0.013211651 0.029171476
000220 8e 37 3b 3d f6 3f 49 3d 9a 51 18 3c 44 f4 00 3d
       0.045707278 0.049133264 0.009296799 0.03148295
000230 b8 8c f7 bc 20 84 30 3d 55 e1 b8 bd 04 4c 1f bc
       -0.030218467 0.043094754 -0.09027354 -0.009722713
000240 70 65 80 bd ee aa cf 3d 17 a9 8a bc 05 20 bf bc
       -0.06269348 0.10140024 -0.016926331 -0.023330698
000250 f1 1e 52 bd e3 91 20 bd f8 08 b3 bd b8 93 53 3d
       -0.05129904 -0.03920163 -0.08741945 0.051654547
000260 4c 9b b3 3b cf d4 53 bd 4d 6a 66 3d 0c 90 99 bd
       0.0054811593 -0.051716622 0.05625372 -0.07498178
000270 af cb e1 3c a3 71 21 bd dc c4 8f bd 54 6f 13 3c
       0.027562944 -0.039415013 -0.0701997 0.008998711
000280 37 f2 cf bd 8c 83 d7 3d 2c f9 d7 3c d8 a3 3f 3d
       -0.10153621 0.105231375 0.026363932 0.046787113
000290 7e 7e ac bc 23 58 72 3d 98 10 5f bc fa 86 df bc
       -0.02105641 0.059166085 -0.013614796 -0.027286042
0002a0 7f 43 85 3c c0 d2 51 3c ba da 15 3e 4f df 91 3c
       0.016267536 0.012806594 0.14634219 0.017806677
0002b0 ea 11 95 3d 25 47 f6 bc 97 04 06 3d 8c 53 61 3d
       0.072788075 -0.030063221 0.03271922 0.055011317
0002c0 21 ff d9 3d 40 2c 35 3d f3 d7 85 bd 0c 66 07 bd
       0.10644365 0.044231653 -0.0653533 -0.033056304
0002d0 e9 18 b5 3d 16 eb fb bc 5f 9a 91 3c 9b 4e f0 bd
       0.08842642 -0.030751746 0.017773805 -0.11733743
0002e0 fa 4a c9 3d 8b 46 a3 3d 5c 33 87 bc ff 79 d6 bc
       0.09828754 0.079724394 -0.016503982 -0.02618122
0002f0 a1 e9 90 bd 4e 72 e1 bd 20 2a 8f 3c 18 b6 cc 3c
       -0.07075811 -0.1100813 0.017476141 0.024989173
000300 4c 0d ee 3d ba ba cc 3d 59 50 07 3d 12 c6 24 3d
       0.1162363 0.09996553 0.03303561 0.040227957
000310 49 5c 0a bd 2d 13 17 b9 14 8a 9a bd ee 4f bf bd
       -0.033779416 -0.00014407626 -0.075458676 -0.09341417
000320 43 b3 89 3d ae ea 25 3c 4e 2d 68 3d 6f 37 82 bd
       0.067236446 0.010126753 0.05668383 -0.06358229
000330 f6 8c 53 3d ac eb 78 3c 6a fd c3 bc ce a5 3a 3d
       0.051648103 0.015192907 -0.023924548 0.04556828
000340 fc 60 22 be ae 73 17 be e8 cc 85 3d fc 14 08 3e
       -0.15857309 -0.14790222 0.065332234 0.13289255
000350 16 95 e0 bd ba 90 5d bc 66 89 db 3d 64 68 52 bd
       -0.10965936 -0.013523275 0.10719566 -0.051369086
000360 19 0e 5b 3d 59 93 c7 bd 1d 39 05 3d aa c1 ee bd
       0.05348024 -0.09744901 0.03252517 -0.11658032
000370 56 e3 11 be 5d 43 b9 3d 4c 7a 81 3c 19 13 b3 bd
       -0.14246878 0.09046052 0.015805386 -0.08743877
000380 35 22 3a 3c cb 2b 05 3d 2e be 46 bd 38 24 8d 3d
       0.011360695 0.032512467 -0.048521213 0.06891674
000390 04 17 5e 3b 0a 00 a0 3c 4a e2 ca 3c 37 a7 78 3d
       0.003388823 0.019531269 0.024766106 0.060706344
0003a0 9d ef 19 3c 40 d7 23 3d fe 41 88 bd 93 05 a8 bd
       0.009395507 0.0400002 -0.06653212 -0.08204188
0003b0 48 99 9a bd 5d 94 ca 3d ea 98 f8 3d d7 81 3f 3c
       -0.07548767 0.09891579 0.12138541 0.011688671
0003c0 88 0f 8f 3c 93 41 29 3d 78 fd 49 bd ec da 30 bd
       0.01746346 0.041322302 -0.049313992 -0.04317753
0003d0 2d ae 0e be 00 e6 7b 3d ab e2 14 3e 3e 29 dd 3c
       -0.1393363 0.061498642 0.14539592 0.026997205
0003e0 13 e6 9b 3c 86 04 35 3d a6 66 49 bd 2f 0e 8b bc
       0.019030606 0.044193767 -0.04917016 -0.016974537
0003f0 f9 d2 43 3d 4a 97 fe 3d ed ce 76 bd c2 8a 25 be
       0.04780862 0.124312 -0.060255934 -0.16166213

net.net.3.0.weight f4 [256, 256]
000000 bb 15 d2 3a 5d c3 5b 3a e3 2c 97 ba 6d 22 45 ba
       0.0016028205 0.00083832984 -0.0011533763 -0.00075200835
000010 9e fd a7 b9 b0 c1 23 b9 38 e7 d8 3a 13 76 09 bb
       -0.00032041682 -0.00015617046 0.0016548401 -0.0020974919
000020 01 6a 88 3a a9 c2 d7 ba 79 4d 3f 3b cb 07 44 3b
       0.0010407568 -0.0016461211 0.0029190464 0.0029911872
000030 92 b8 eb b9 09 98 b6 3b 77 3b 4a 3a 98 6e 93 bb
       -0.00044960208 0.005572323 0.00077145494 -0.004499268
000040 e3 92 b4 ba bc fb 18 3b 77 17 e6 ba 02 10 ee 3a
       -0.0013776686 0.0023343405 -0.00175546 0.001816273
000050 53 15 21 3b 11 aa a2 39 07 11 a3 37 4c 85 a2 3a
       0.002457936 0.00031025757 1.9439043e-05 0.0012399345
000060 ac eb da ba a2 30 07 bb 88 7d bf ba c0 fb cb ba
       -0.0016702316 -0.0020628353 -0.0014609555 -0.0015562698
000070 8f e9 cf b9 79 1c d3 ba 0a bf ae 3a 16 dd d8 38
       -0.0003965613 -0.0016106508 0.001333208 0.00010340863
000080 09 fa 1f bb ce fd d7 3a 8e 78 0f bb 6e 6f 02 bb
       -0.0024410507 0.0016478838 -0.0021891925 -0.0019902843
000090 99 84 90 39 51 ac ca 3a e0 5a 4a ba c8 fc a1 bb
       0.00027564613 0.0015462731 -0.000771923 -0.004943464
0000a0 5e 06 d8 3a 7c 80 1b ba 86 d0 be ba 0d ef e4 b8
       0.001648139 -0.00059319264 -0.0014557994 -0.00010916414
0000b0 53 4a 78 3a 83 30 f3 3a 75 ea 20 3b ba 9f 48 bb
       0.00094715244 0.0018553886 0.002455381 -0.0030612783
0000c0 4f 82 e4 3a 85 70 d1 3a 9b e1 42 3a 93 68 64 ba
       0.0017433855 0.0015978968 0.00074341305 -0.00087130925
0000d0 93 9c 49 3a bb ab 29 bb fa a4 c9 3a a4 00 0e b9
       0.0007690873 -0.0025889713 0.001538425 -0.00013542414
0000e0 46 f7 bb 3a 99 d4 5b ba d4 56 c6 ba 77 fb 10 bb
       0.0014340661 -0.00083858665 -0.0015132078 -0.002212254
0000f0 86 0b 08 39 16 cf 4d ba c8 00 82 38 55 74 0f bb
       0.00012974264 -0.00078509876 6.1990286e-05 -0.0021889408
000100 0c a5 c9 ba 73 39 13 b8 b6 6b 37 3a db 50 a5 3a
       -0.0015384271 -3.5101035e-05 0.0006996946 0.0012612598
000110 96 0c 7f 3b 3c 30 40 b9 c8 c7 84 ba c0 d3 67 3a
       0.0038917414 -0.00018328516 -0.001013034 0.0008843504
000120 8b 94 53 3a 2e d1 22 bb 65 76 0e ba 85 74 a0 bb
       0.0008071146 -0.002484392 -0.0005434512 -0.0048967027
000130 da 63 da 3a 22 51 29 bb cc 84 47 3b 36 ed 37 b9
       0.0016661838 -0.0025835712 0.0030444143 -0.00017540608
000140 c9 b6 6f 3a a5 88 dc 3a 4c a9 a8 3a ed df 4b bb
       0.00091443636 0.0016825391 0.0012867837 -0.0031108812
000150 69 a1 c8 3a 10 2d e6 b9 05 17 3e ba fe db 8c ba
       0.0015306893 -0.00043902593 -0.0007251355 -0.0010746715
000160 2d 9a 4a bb 12 12 0b 3a 69 1a b3 39 3e 9a 5f 3b
       -0.003091465 0.0005305122 0.00034161218 0.0034119035
000170 3d 37 e7 ba ef 35 56 ba 9b f5 21 38 61 7a cd ba
       -0.0017640364 -0.0008171489 3.861413e-05 -0.001567673
000180 e7 ea 87 ba 23 db ef ba ff f2 0c 3b d6 54 5b ba
       -0.0010369689 -0.0018299561 0.0021507142 -0.00083668286
000190 c1 78 56 bb 73 43 b3 3b 1e b9 40 bb b8 d7 c9 3a
       -0.0032725784 0.005470687 -0.0029407213 0.0015399372
0001a0 bc 7f ec ba da 8a 77 3b f5 50 47 ba e4 6e e4 3a
       -0.0018043439 0.003777197 -0.0007603311 0.0017428068
0001b0 09 7c e1 3a 00 6c 0e 3a 81 c2 d0 b9 d1 54 a7 ba
       0.0017203103 0.00054329634 -0.00039817768 -0.0012766366
0001c0 d2 5e 26 ba 8f b4 55 ba d8 b9 94 b9 9e df ba 3a
       -0.0006346527 -0.00081522105 -0.00028367224 0.0014257317
0001d0 f8 13 13 3a 34 49 71 ba 2b a4 8a bb e2 93 b4 ba
       0.00056105806 -0.00092043285 -0.004230996 -0.0013776983
0001e0 c0 09 9a ba 3f b7 25 b9 f7 c9 d8 39 a7 86 97 b8
       -0.0011752173 -0.0001580389 0.00041349206 -7.225322e-05
0001f0 9f 90 d2 3a c6 91 83 ba ca 35 94 ba db 5b 0c bb
       0.0016064829 -0.0010037951 -0.0011307534 -0.0021417055
000200 eb 7d 1f 3a 86 1d 56 3a 46 8a 54 39 18 81 54 bb
       0.0006084132 0.00081678515 0.00020269406 -0.0032425579
000210 d5 21 c5 ba 2c 10 71 3a 85 8f 89 38 24 e8 13 bb
       -0.001503999 0.000919583 6.559402e-05 -0.0022568787
000220 b6 d1 bd 39 3d 92 0d bb 18 cd 7e 3b a8 0f a7 3a
       0.00036205136 -0.0021602057 0.003887957 0.0012745755
000230 6f e7 1b 3b 7a 44 a5 ba 0c 16 c6 3a 50 fc d4 ba
       0.0023789068 -0.0012608909 0.0015112772 -0.0016249511
000240 f1 ed 6a 3a 2c dc eb 3a a7 2b 10 bb 31 8b ba ba
       0.00089618476 0.0017994693 -0.0021998675 -0.0014232156
000250 f5 93 c5 ba 14 8b 34 bb 5b 14 7a 39 2e 54 07 bb
       -0.0015074002 -0.0027548717 0.00023849441 -0.002064954
000260 d1 fe 2f ba cd 73 59 3b 31 6e ad 3a 71 37 c6 37
       -0.0006713691 0.0033180595 0.0013231692 2.3629256e-05
000270 c6 e6 9c b9 f9 fe dd ba 77 38 b6 ba 75 e2 04 3a
       -0.00029926578 -0.001693695 -0.0013902326 0.0005069145
000280 9c 03 0b b8 eb b4 ee 38 8a 56 36 3b 61 14 7d bb
       -3.3143544e-05 0.00011382423 0.0027822577 -0.0038616883
000290 60 2d 04 bb 1e f3 fa 3a 5d f0 93 ba a2 45 81 ba
       -0.0020168647 0.0019145941 -0.0011286844 -0.0009862671
0002a0 30 7b 99 3a 77 7b 09 3b 9f 00 cb 3a 83 75 a2 b8
       0.0011709686 0.0020978132 0.0015487856 -7.74665e-05
0002b0 85 ea 5a ba 1e 15 6c 3b cd 19 07 3b 3f b6 fb b7
       -0.0008350986 0.003602333 0.0020614744 -3.0006397e-05
0002c0 42 c9 be 3a 29 e2 4c 3a 6f 26 06 bb a9 aa 02 ba
       0.0014555829 0.0007815683 -0.0020469686 -0.0004984537
0002d0 44 7d 02 3a 08 43 83 39 54 ff 83 bb 3e 54 45 b9
       0.00049777725 0.0002503621 -0.00402824 -0.00018818767
0002e0 82 35 39 3b 9c ff 36 b9 84 0c ba b9 d8 d9 cb b8
       0.0028260653 -0.00017452094 -0.0003548601 -9.720371e-05
0002f0 e7 37 35 3b 40 97 0a 3a b0 c8 d6 ba de 31 08 3b
       0.0027651729 0.000528682 -0.0016386714 0.0020781676
000300 a1 8c 0b bb eb 1f 91 3a 48 8f 1b 3a cd b4 c4 b9
       -0.0021293538 0.0011072134 0.00059341313 -0.0003751874
000310 0b 26 49 38 21 a7 7e 3b 3b 83 b2 ba 79 07 f4 3a
       4.7957565e-05 0.003885694 -0.0013619432 0.001861795
000320 b6 be 0b ba 50 04 1e bb e2 49 89 3b d7 77 95 3a
       -0.00053308473 -0.0024111457 0.0041897157 0.0011403513
000330 51 bd 06 bb 8d bd 0b bb c5 60 41 ba 1c 26 fb ba
       -0.0020559619 -0.0021322698 -0.00073767855 -0.0019161138
000340 84 e0 eb 3a 67 52 5a ba e1 2c c6 3a 85 e0 4d 3b
       0.0017995988 -0.0008328319 0.0015119576 0.0031414342
000350 aa e7 82 3b 4a a6 a5 3a 43 ac d8 ba c8 22 82 3b
       0.0039949017 0.0012638059 -0.001653083 0.0039714314
000360 5c 72 80 3b 38 6b 8c ba 7e 01 2a ba e9 5f 70 3a
       0.0039198827 -0.0010713106 -0.00064852077 0.0009169565
000370 5d 67 68 b8 95 17 10 39 3a c7 31 ba 68 69 4a ba
       -5.5409375e-05 0.00013741695 -0.0006781701 -0.0007721395
000380 7c 66 23 3b 46 df 42 3a a3 76 d1 3a 06 64 85 3a
       0.0024932912 0.0007433783 0.0015980791 0.0010176904
000390 2a 81 7b bb 69 2d bb ba a8 70 df ba dc 0d 52 3b
       -0.0038376548 -0.0014280501 -0.0017047124 0.0032051718
0003a0 3c 4b 96 3b a7 7f c6 b9 91 c8 2c 3a 4f a1 04 3a
       0.0045866054 -0.0003786061 0.0006591166 0.0005059437
0003b0 8e db 9a 3b bc e0 76 3a 5b 76 73 bb 8c 6d 42 3b
       0.00472588 0.00094176433 -0.0037149403 0.0029667346
0003c0 e7 7e bc bb 35 0c 31 3b ac 22 2a bb eb f7 ff 39
       -0.0057524326 0.0027015333 -0.0025960607 0.00048822103
0003d0 a5 b5 99 b9 ae fb 24 3a 4c a6 0b 3a ce 49 d0 38
       -0.0002931777 0.0006293607 0.00053272094 9.93196e-05
0003e0 2f 53 2d 3a b1 81 80 ba 83 ee 12 bb df b7 6e 3a
       0.00066118216 -0.0009804276 -0.0022419996 0.00091063784
0003f0 3a 1b b0 ba 02 cb 4b bb 3d 4f 01 ba d5 5a 4d b9
       -0.0013435849 -0.0031096344 -0.0004932767 -0.00019584161
